best_regressor.pt (torch, 69993 bytes, 6 tensors)

net.0.weight f4 [128, 64]
000000 1a 74 0a 3e 42 92 c7 bd c1 18 df 3c eb 59 4e bd
       0.13520852 -0.09744693 0.027233483 -0.05037872
000010 41 64 16 bd 17 e2 ed bd 8b 8e f1 3d 5f 97 f6 bd
       -0.036716703 -0.11615389 0.11794766 -0.120405905
000020 34 0e ca bd 63 5f d7 3d 1c 3b 69 bd d1 c3 90 bd
       -0.0986599 0.105162404 -0.056941137 -0.07068599
000030 97 6d 00 be 7b b3 4c bb 9c f9 04 3e 10 9c d4 3d
       -0.12541805 -0.0031234908 0.12985843 0.10381329
000040 8c 8f 47 3d ab 3d 64 3d f4 31 84 bd cd 35 c2 3c
       0.04872088 0.055722874 -0.0645484 0.023707295
000050 fb fe 21 3c ab 67 d4 bd 79 3c 0a be d5 eb 30 bc
       0.009887452 -0.103713356 -0.13499631 -0.010798414
000060 bd 11 d9 3c cd 5e a3 3d cb 47 c9 3d 22 e3 1d bc
       0.026497716 0.07977066 0.098281465 -0.009636672
000070 a1 df 63 3d 97 61 14 bb 2f be 9d bd 35 d8 0b bd
       0.05563319 -0.0022641176 -0.0770229 -0.034141738
000080 f6 90 b4 bd 42 7a 68 bd 74 21 87 bd d4 8b eb 3d
       -0.088167116 -0.05675722 -0.065981776 0.115012795
000090 13 55 af bb e6 24 9a 3c 7b 5c c2 3c 73 82 16 bd
       -0.005350718 0.018816423 0.023725739 -0.0367455
0000a0 87 a6 75 bd be b6 95 3d 42 53 3a 3e c4 15 aa bd
       -0.059973266 0.07310246 0.18195823 -0.08304933
0000b0 f1 84 31 be 5c 1f 7b 3d d3 fe 35 3e 78 5b ab 3c
       -0.1733587 0.061309204 0.17772989 0.02091764
0000c0 d1 58 26 bb e0 ee 0b bc 4c 65 2b 3e 57 b8 4d 3d
       -0.0025382529 -0.008540839 0.1673786 0.05022463
0000d0 07 e8 1f 3d 98 b3 c6 3c 43 e0 d4 3d 59 cb 9f 3c
       0.039039638 0.024255559 0.10394337 0.019506143
0000e0 20 6c 38 be 33 1a 05 be 1e 53 12 3c 52 fe f9 bd
       -0.18009996 -0.12998275 0.0089309495 -0.12206711
0000f0 8b 57 04 3e c6 74 48 be c8 07 b2 bd e7 f5 15 3d
       0.1292402 -0.19575796 -0.086928904 0.036611464
000100 c0 ea 82 bd e2 2a 15 3e af 09 35 be 24 62 14 3d
       -0.06392431 0.1456714 -0.17679475 0.036226407
000110 03 89 33 3d 9e b1 1b bd be 0a b3 bc 23 a4 d2 bd
       0.043831836 -0.038011186 -0.021855708 -0.10285213
000120 13 a5 86 3c 7b 82 45 bd 4e e4 2d bd 17 c4 d1 bd
       0.016436135 -0.04822014 -0.042454056 -0.10242479
000130 b4 71 e9 bc 30 ff cf 3c 45 54 a6 bd 91 83 05 3e
       -0.0284966 0.025390238 -0.08121542 0.1303847
000140 dd 99 94 bd 1f 7f e9 bd 4d de a2 bd 41 42 1d 3d
       -0.072559096 -0.114011995 -0.07952557 0.038393263
000150 83 56 62 3d c9 0e 94 3d 1b b6 d2 bd c3 3d dc bd
       0.055258285 0.072293825 -0.1028864 -0.107539676
000160 8e 16 9a bc b9 53 72 3d 54 e5 0c be cd 4f 8f bd
       -0.018809583 0.059161875 -0.13759357 -0.06997643
000170 b5 39 38 3d 9d d9 f5 3d 12 2d 79 bd c7 ca b9 3c
       0.04497691 0.12004397 -0.060833998 0.0226797
000180 e5 dc 00 3e 25 22 08 3d 7e 9b 70 bd 15 04 d1 3c
       0.12584265 0.033235688 -0.05874204 0.025514642
000190 be f0 01 3d 54 3f a1 bd 79 a8 8b bd 1f 12 eb 3c
       0.03172373 -0.07873407 -0.06819243 0.028695164
0001a0 17 52 01 bc 1a b1 a8 bd 78 ff 55 3d 1a b2 21 bc
       -0.007893107 -0.082369044 0.052245587 -0.009869123
0001b0 09 02 4f 3b 74 3f ac 3d dc 59 37 bd 25 93 50 3d
       0.0031586906 0.0841054 -0.04476343 0.050921578
0001c0 92 67 6c bd e7 af 69 3e ba c2 3b 3d d7 d2 f4 bd
       -0.05771596 0.22821008 0.045840003 -0.11954277
0001d0 b3 40 0a 3d b7 33 e4 3d b2 8f df 3b 2d db c5 3c
       0.03375311 0.11142676 0.0068225497 0.024152363
0001e0 4d 4f e7 3c b9 7e fd bc ab 97 bb 3b fd 59 90 3d
       0.028236056 -0.030944215 0.0057248673 0.07048414
0001f0 f5 e0 30 bd 5d c3 9f 3d 88 05 8d 3c 96 84 fc bd
       -0.043183286 0.078009345 0.017214552 -0.12329976
000200 73 fb 46 3e 69 6f bc bd 80 f3 07 3e 36 b9 b8 bd
       0.19431858 -0.09200937 0.13276482 -0.09019701
000210 ba 88 91 bc bb a0 b5 3d 9c 81 2e bd fc ba 02 3d
       -0.017765392 0.088685475 -0.042604074 0.031916603
000220 f9 f5 52 bc 8c 96 0a 3e 8a 59 6f bb d0 c2 0d 3d
       -0.012876027 0.13533992 -0.0036521875 0.034609616
000230 7f 0c d5 bd 52 aa e8 bd 9e d8 7f 3d 84 65 fc bc
       -0.10402774 -0.11360611 0.06246244 -0.030810125
000240 60 ef f3 3c e4 5e 90 bd 72 b0 94 3d 7c f1 5d 3d
       0.029777229 -0.07049349 0.07260217 0.054185376
000250 75 d7 45 3d 22 90 50 3d 15 bb c5 3d 42 08 07 3d
       0.04830118 0.050918706 0.09654824 0.03296686
000260 d1 f5 20 be e3 80 99 bd 36 54 a9 3d fd 2a 00 3e
       -0.15718772 -0.07495286 0.08268015 0.12516399
000270 8e 3f 2a bd db f6 84 3c 9b 48 3a bc 12 87 df 3b
       -0.041564517 0.016230991 -0.01136985 0.0068215216
000280 59 14 7e 3d b6 72 e8 bc b2 01 fd 3c c3 4c 9b 3c
       0.062031124 -0.028375011 0.030884597 0.018957501
000290 87 41 8e 3d 4e 6b c4 3d fb b7 63 bd e9 20 ef 3d
       0.06946092 0.09590779 -0.05559538 0.11676199
0002a0 d3 60 1a 3e fb 65 cb bc dc 98 94 bc f6 8c 30 3d
       0.15075998 -0.024828902 -0.018139295 0.04310318
0002b0 35 62 55 3e f7 86 2b 3e 4b 05 00 3e fb d0 60 3e
       0.20838244 0.16750704 0.12502019 0.2195472
0002c0 09 e1 bc 3d 60 bd 63 3b 95 45 9b bd 10 ed ab 3d
       0.092226095 0.0034750327 -0.07581631 0.083948255
0002d0 90 33 b5 3d ab 81 83 bc 73 60 ef bd 57 f1 6e 3d
       0.088477254 -0.016053041 -0.11688318 0.05833563
0002e0 0d 2a 8f bd 6c d6 b5 b9 8d 9d b0 bd e0 95 e3 ba
       -0.069904424 -0.00034682767 -0.086238004 -0.0017363392
0002f0 07 d7 02 be 69 12 66 bd 05 83 51 3d 8b a0 a7 bc
       -0.12777339 -0.0561699 0.05115034 -0.020462295
000300 1a bb 2c 3e d8 84 4e bd 4e 1b ec bc a1 83 61 3d
       0.16868249 -0.05041966 -0.028821614 0.05505717
000310 31 f7 a2 bd bd 12 cf bd d3 df c5 bd 1d 7b 46 bd
       -0.07957304 -0.10110996 -0.09661832 -0.048457254
000320 02 2f 12 bd 5f 03 51 bc de 87 8c 3d f0 a9 b1 3c
       -0.03568936 -0.012757151 0.06861852 0.021687478
000330 f0 d0 e1 bd 5d 54 4c bd 0a cc ba bd 17 49 c9 3d
       -0.1102618 -0.049885143 -0.091209486 0.09828394
000340 f3 a3 36 3c 5c 56 3f 3e 12 b8 02 3c 3b d2 b3 3c
       0.011147487 0.18685287 0.007978456 0.021950832
000350 ab e5 98 3d 0e 2e d6 bd 67 05 14 bd 10 ba 22 3d
       0.07465681 -0.10458003 -0.036137965 0.039728224
000360 ba 84 98 bc a9 70 a8 3d 79 9b d6 3c 5b 60 dc 3c
       -0.018617976 0.08224613 0.026197182 0.026901415
000370 36 09 70 bc 79 07 85 bd df 4e 44 3d 10 53 1e 3d
       -0.014650634 -0.06495566 0.04792678 0.038653433
000380 ad 70 7d bb d7 77 8b bd 86 4c eb 3d f6 eb 7b bc
       -0.0038671896 -0.06809967 0.11489205 -0.015376082
000390 b7 25 b4 3d c3 f5 e0 bd 11 ca df 3c c6 e5 c5 bd
       0.08796256 -0.10984375 0.027318032 -0.096629664
0003a0 2f ec 00 3e 7b 00 29 3e e2 62 b9 bd 4e c5 92 bd
       0.12590097 0.1650409 -0.090520635 -0.07166539
0003b0 f1 89 77 3d 78 c4 48 3e 30 46 71 bd 61 21 9c bd
       0.060434286 0.19606197 -0.058904827 -0.07623554
0003c0 85 29 b1 bc 41 87 a6 bd 71 f4 14 3e 38 32 9e bd
       -0.021626243 -0.081312664 0.14546372 -0.07724422
0003d0 fc 2b 2f bd 18 21 b4 3d 4f 0c e2 3d d8 a1 fd bd
       -0.042766556 0.08795375 0.11037504 -0.12384385
0003e0 fe 0b 7b bd c7 26 54 3d 2b 8a b9 bd 6c 6a 1c be
       -0.061290734 0.051794793 -0.090595566 -0.15274972
0003f0 b1 93 9c bd a5 81 4a bd 16 6a 0b bd 5a eb b1 bd
       -0.076453574 -0.049440045 -0.03403672 -0.08687468

net.0.bias f4 [128]
000000 ae 44 6e bc b3 77 f5 3c 1a 5e da 3d 6d 1f 00 3e
       -0.014542742 0.029964304 0.1066248 0.12511988
000010 e8 b5 4e 3e 7d 15 57 3e 32 5e 35 3e c4 20 41 3e
       0.20186579 0.21004291 0.17711714 0.18860155
000020 e6 14 77 3e 13 7e de 3d b0 16 d2 3d 6d f1 14 bd
       0.24129066 0.108638905 0.102582335 -0.036363054
000030 7b 9b 0e 3e f5 90 22 3e 0a 70 9b 3d 98 b6 76 3e
       0.13926499 0.15875609 0.07589729 0.24093091
000040 46 cc 3d 3e ec 81 77 3d 16 7c 0a 3e 00 47 d7 3d
       0.18534955 0.060426638 0.13523898 0.10511589
000050 d9 f8 4e 3e a4 12 2d 3e 84 36 8f 3d 82 cc 48 3e
       0.20212115 0.16901642 0.0699282 0.19609264
000060 d6 5f 68 3e 8d c5 ae 3d d2 e8 ae 3d 62 54 05 3c
       0.22692809 0.085337736 0.08540501 0.008137794
000070 86 9f 00 3e 54 a8 42 3d c0 c9 e3 3d b0 b5 86 3c
       0.12560853 0.04752381 0.11122465 0.016444057
000080 9f cf 0e 3e f7 9e d9 bc 9d 10 87 3e 79 f3 c5 3d
       0.13946389 -0.026565058 0.26379862 0.09665579
000090 8d 4d 3a 3e a9 2a 09 3d bb 63 a6 bb 0f 9f 81 3e
       0.18193646 0.03348795 -0.0050778068 0.25316665
0000a0 83 70 2a 3e e1 8c 31 3e 83 c9 87 3d 6d ef a2 3d
       0.16644482 0.17338897 0.06630232 0.07955823
0000b0 a6 0e c2 bc 29 29 28 bd 62 bf b5 3d 39 c1 26 bc
       -0.023688626 -0.04105488 0.08874394 -0.010177904
0000c0 08 e3 e5 3d 3b a0 96 3e 4f 6c 42 3e 13 fd 33 3d
       0.112249434 0.2941912 0.18986629 0.043942522
0000d0 c2 6f 2b 3d 22 8b 51 3e 88 f4 07 3e 2b eb 29 3e
       0.041854627 0.20463231 0.13276875 0.16593616
0000e0 ba 25 68 3e 92 ae 87 3d 45 19 b3 3d f5 44 10 3e
       0.22670642 0.066250935 0.08745054 0.14088805
0000f0 2f e9 6f 3e 33 e9 c4 3a 6b c1 b2 3c 40 48 34 3e
       0.23428796 0.0015023112 0.021820744 0.17605686
000100 03 b3 67 bc 29 14 1d bd 7d d9 5c 3d 8e 43 a1 bb
       -0.014141801 -0.038349304 0.05391835 -0.004921383
000110 c4 6a 16 3d 11 a3 7b 3e 32 a3 04 3e cd 03 36 3e
       0.036722913 0.24573924 0.12952879 0.17774887
000120 0c a4 7e 3e f5 fe 41 3e 84 5d 65 3e 17 be 5c 3e
       0.24867266 0.18944915 0.22398955 0.21556889
000130 92 b4 05 3e 4f dd c7 3c 03 bc c4 3c 2b 31 0a 3d
       0.13057163 0.02439752 0.024015432 0.033738296
000140 f8 a3 84 3d c8 9b 80 3e c9 97 cc 3d 90 05 77 3d
       0.06476587 0.25118852 0.09989888 0.06030804
000150 6c 8a 06 3d 3f 32 4a 3d 35 6c 47 3e 69 9a ba 3b
       0.032846853 0.049364325 0.19474871 0.0056946767
000160 97 54 3d 3d 34 4c c4 3c 1b c5 2f bc a3 f0 40 3e
       0.04622325 0.023962118 -0.010728146 0.18841796
000170 7a 34 65 3e 41 30 24 3e 89 40 46 3e be 33 0d 3d
       0.223833 0.16034032 0.19360556 0.034473173
000180 16 de 5b 3e 34 dc 21 3e 0c 24 77 be 99 f1 06 3d
       0.21471438 0.15806657 -0.24134845 0.03294525
000190 3f 19 ee 3d cc 5e 3c bc a4 86 58 3e f0 66 76 3e
       0.11625909 -0.011497211 0.21145111 0.24062705
0001a0 69 3e 32 3e d1 60 86 3e ec 38 30 3c e0 37 37 3e
       0.1740662 0.2624574 0.010755759 0.17892408
0001b0 cb b8 40 3e 4b df 55 3e fb a9 5f 3c a1 7f 61 3e
       0.18820493 0.20885961 0.013651366 0.22021343
0001c0 f8 00 9b 3d 07 0a 12 3d 71 af 65 3e 11 a5 60 3e
       0.07568544 0.035654094 0.22430207 0.21937968
0001d0 39 c8 3a 3e 37 cc 4e 3e a2 51 00 3d f2 9d 53 3e
       0.18240441 0.2019509 0.03132785 0.2066572
0001e0 96 28 47 3e 0e 87 76 3e 1d 45 e5 3d d1 c0 83 bb
       0.19449076 0.24074957 0.11194823 -0.0040207882
0001f0 3a d9 51 3d f4 d7 84 3e ed a4 08 3e 90 61 5b 3e
       0.051232554 0.2594601 0.13344164 0.21423936

net.3.weight f4 [64, 128]
000000 90 11 55 3d e9 53 55 bd 4e 0f 05 bd bd e9 05 bd
       0.052018702 -0.052081976 -0.0324853 -0.032693613
000010 dc 8f 51 3d 85 ba 5e 3d 49 0b ce 3d 97 a4 ab 3d
       0.051162586 0.054377098 0.10060746 0.083810024
000020 17 a0 6c 3d d0 10 e6 3c 6b c1 25 3e 1b 2c 28 3d
       0.05776986 0.028084189 0.16187064 0.041057687
000030 a8 32 6f 3d 4b db c2 3c 75 01 75 3c ea 30 d0 3d
       0.05839792 0.023786208 0.014953961 0.101655796
000040 6e e3 0e bd 10 48 de bc d9 8a e3 3d 58 2b 4a bd
       -0.034884863 -0.027133971 0.111104675 -0.049357742
000050 e0 8b 13 3c b1 86 c2 3c d3 e9 e1 3d 0b f5 78 3c
       0.009005517 0.023745866 0.110309266 0.015195142
000060 b1 d1 a5 3d 6f dc 00 3e 2b 7c a9 3a 03 c9 ef 3d
       0.08096636 0.12584089 0.0012930682 0.11708262
000070 67 cd 87 3d 40 08 5b 3a 54 aa e5 3d e4 fa 8a 3d
       0.06630974 0.00083554164 0.11214128 0.06786135
000080 07 65 ba 3c 3c 99 f5 bc 49 3e f7 3d 47 b3 94 3c
       0.022753252 -0.029980294 0.12072427 0.018151892
000090 ae 69 32 bc 4b 6c f9 3d 87 bc 03 3d b1 e8 fe bc
       -0.010889454 0.12178858 0.032162216 -0.031116815
0000a0 83 1f 09 3e f4 89 45 3c 5a ab e1 bc ea 1c 54 3d
       0.13390927 0.012056816 -0.027547527 0.051785387
0000b0 b9 c8 b5 bd 91 50 0f 3e 8d a0 da 3c 64 5b c5 3b
       -0.088761754 0.13995577 0.026687885 0.0060228575
0000c0 04 54 1a 3d 16 c0 d6 3d 93 57 e9 3d a2 c0 43 bd
       0.03767778 0.10485856 0.113936566 -0.04779113
0000d0 66 67 96 3d f5 d3 0f 3d 8e 74 c4 3d f5 75 30 3a
       0.073439404 0.035114247 0.095925435 0.0006731444
0000e0 c9 d1 99 3c 50 bd 9e 3d 2f 00 c3 bc 97 a7 bf 3c
       0.018776791 0.07750952 -0.023803798 0.023395343
0000f0 f2 18 df 3d 58 96 aa bc 38 7c 26 3c 08 20 5a 3d
       0.1089343 -0.020823643 0.010161452 0.053253204
000100 01 ba ce 3d 4f ec 80 3d f9 94 8d 3d 3b 55 ad bc
       0.10094071 0.06295072 0.0691318 -0.021158805
000110 e5 e3 19 3d 6a 36 f1 bc b5 c7 89 3d 48 77 1d 3d
       0.037570853 -0.029444892 0.06727544 0.038443834
000120 69 35 7a 3d 4e 2e ff 3d 11 f1 f2 bc 5a bc 83 3d
       0.061086092 0.12460004 -0.029655965 0.064324096
000130 8b 98 9d 3d ec b7 ab 3d 6e 5b 8c 3d 4c 62 f9 3c
       0.07695111 0.0838469 0.06853376 0.03044238
000140 aa 76 d7 3d 44 fa e8 3d 1c 95 a9 bc 9d 47 a9 3c
       0.1052068 0.113758594 -0.020700984 0.02066403
000150 33 ec 0e bd dd 97 7e 3c 59 62 69 3d 16 51 8e bc
       -0.034893226 0.015539137 0.056978557 -0.01737265
000160 d5 bb c5 3d 2a 40 c2 3c cc 60 a4 3d 55 0e 13 3c
       0.09654967 0.023712236 0.08026275 0.008975585
000170 3c e6 e1 3d 5a e1 18 3d 63 f5 43 3d 7d c4 d2 3c
       0.11030242 0.037324287 0.04784144 0.025728459
000180 65 2b 3c 3d 6b 62 05 3e 7d 7c f0 3b 63 b0 9e 3d
       0.04593982 0.13025825 0.007339059 0.07748487
000190 c8 61 a4 3d 3c 87 4f bc c6 eb 1a bd 47 0c 72 3d
       0.08026463 -0.01266652 -0.037822507 0.05909374
0001a0 66 f4 7b 3d 71 82 3a bb a0 2e 21 3d 50 b1 a5 3d
       0.061512373 -0.0028459097 0.039351106 0.0809046
0001b0 53 24 ce bb 1d dd 33 bd 4d 47 d7 bc 1d 44 11 3c
       -0.0062909513 -0.043912042 -0.026279116 0.008866337
0001c0 0c 60 75 3d 09 6d d2 3d d1 74 17 3e a5 24 a1 3d
       0.05990605 0.10274703 0.14790656 0.078683175
0001d0 61 76 5d bd 12 de 34 3d 5e 2d f3 3c cf c2 af 3d
       -0.054067973 0.044157095 0.029684719 0.08582079
0001e0 3a f2 67 3c c6 2c 67 bc 46 f3 3d bc d9 d9 95 3d
       0.014156872 -0.014109796 -0.011593645 0.07316942
0001f0 85 f2 20 3d 74 1a a3 3c f3 6c 31 bc a6 dc 06 bd
       0.039293785 0.019910075 -0.010829198 -0.03292527
000200 c0 87 91 bd 70 08 88 bd ad 11 8e 3d 8b 6e 65 3d
       -0.071059704 -0.06642234 0.06936965 0.056013625
000210 8f d9 b0 ba 12 48 98 bd 73 23 5d 3d d2 cb a9 bb
       -0.0013492572 -0.07435621 0.053988885 -0.005181768
000220 df 4e 19 bd b4 a0 31 bd ea 9c 27 3d 4b f8 30 3d
       -0.037428733 -0.04336615 0.04092113 0.04320554
000230 10 fb d2 3c d9 37 a6 bd d1 d1 3e 3d 82 eb ac bd
       0.025754482 -0.08116121 0.046586815 -0.08443357
000240 7b 79 b2 bb 7f 6d 90 bd 0e 13 cd bc 49 ba 60 bb
       -0.0054466105 -0.07052135 -0.0250335 -0.0034290722
000250 b0 a5 89 bd 09 30 4e bd 12 58 64 3d 46 c7 b3 bd
       -0.067210555 -0.05033878 0.055748053 -0.08778243
000260 18 3c dc bc 33 11 59 3c 53 68 21 3d ca bb b5 3c
       -0.026884124 0.0132487295 0.039406132 0.022184271
000270 dc 12 3e bd 12 b5 55 bd 90 1e 02 bc d2 d5 07 3d
       -0.046404704 -0.052174635 -0.007941857 0.0331629
000280 33 0c 56 bd 16 14 99 bc 29 03 9c bd 2d 5c 9a bd
       -0.052257728 -0.018686336 -0.0761779 -0.075371124
000290 3c 0a 8f 3c a3 46 e5 bb 86 41 23 3c 6e 5c 6a bd
       0.017460935 -0.006996946 0.0099643525 -0.057217054
0002a0 78 ec 80 bd 25 64 cd bd ba 7b 06 3c 34 52 2e 3d
       -0.06295103 -0.10028867 0.00820821 0.042558864
0002b0 b4 2a 9d bd d6 38 6c bd 10 81 d6 3c e3 cf 80 bd
       -0.076741606 -0.05767139 0.026184589 -0.06289651
0002c0 c3 ac d1 bc 2c 2d 88 bc d9 f3 2b 3d b0 88 b8 bc
       -0.025595075 -0.016623102 0.041980598 -0.022526115
0002d0 27 fe 87 bd ec e4 10 3c f0 cc c5 bd 64 16 b6 bd
       -0.066402726 0.008843642 -0.09658229 -0.088909894
0002e0 59 50 de bc ef f2 3d 3d 19 2d 20 bb 8c b7 bb bd
       -0.027137922 0.046374258 -0.0024440943 -0.09165868
0002f0 fe 82 b2 bd 2b c4 cb 39 4d 20 b4 3c c8 0c c4 bc
       -0.08716391 0.00038865334 0.021988058 -0.023931876
000300 3f 49 f2 3c 65 ad b3 3c 22 6d a5 bb d2 29 a0 bd
       0.029575942 0.021933267 -0.00504841 -0.078204766
000310 15 43 73 bc 46 2a 23 bd 50 da 9f bd 62 70 76 bd
       -0.014847537 -0.039835237 -0.07805312 -0.06016577
000320 37 a3 96 bc 9c 41 6b bd cf c4 01 bd 81 3d 96 3c
       -0.018388374 -0.057435617 -0.031681832 0.018339874
000330 59 38 c6 39 96 0d f7 bc fc 80 54 3d 47 f7 0b 3c
       0.00037807485 -0.030157845 0.05188082 0.008542842
000340 75 80 b1 bd 81 f4 0e 3d b3 b9 f7 bb 3d 7b 67 bd
       -0.08667079 0.034901146 -0.007559979 -0.056514014
000350 d4 d8 07 3d c4 25 dc 3c 37 17 59 bd 29 0c 24 39
       0.033165768 0.026873477 -0.053000655 0.00015644789
000360 e5 9a d7 bd 5b 64 a4 bd 94 47 e6 bc f3 34 86 bd
       -0.10527591 -0.08026954 -0.028110303 -0.06553068
000370 c8 07 72 3c 33 4f 41 bd a4 c5 9b bd 26 78 dd 3c
       0.014772363 -0.04719467 -0.07606056 0.02703483
000380 24 5f a6 bd 52 cb a5 3c d3 8a 3e 3d 91 3c 8b bd
       -0.081236154 0.020238552 0.04651911 -0.067986615
000390 d8 33 41 3d 69 9e 89 bd 1f bc 4c bd ad 98 b0 bd
       0.047168583 -0.067196675 -0.049984094 -0.086228706
0003a0 db 6c 95 bd ea 22 a6 bd 85 04 ca bc 24 d2 e3 bc
       -0.07296153 -0.08112128 -0.024660358 -0.027810164
0003b0 84 2a 7f bc 57 24 87 3d 9b fa 62 3d 18 ba f9 3c
       -0.015574101 0.06598728 0.055414777 0.030484244
0003c0 65 cd ad bb 97 b5 b1 bd 38 64 26 3d b3 89 84 bd
       -0.005304026 -0.08677214 0.04062292 -0.064715765
0003d0 62 99 03 3d 0f 15 79 3d cc f4 42 bd 1b 51 37 3c
       0.0321287 0.0608111 -0.047596738 0.011188771
0003e0 72 35 ca bc 3e 5f 9e bd d0 ac 57 bd fd c8 85 3d
       -0.024683688 -0.0773301 -0.05265504 0.06532476
0003f0 93 98 d5 3c 02 e5 a9 bd 2a 50 55 3d 04 bc 84 bb
       0.02607373 -0.08295633 0.052078404 -0.0040507335

net.3.bias f4 [64]
000000 73 49 71 3d e3 f7 f4 bc 42 d5 00 3e 28 66 32 3e
       0.058907937 -0.029903358 0.12581351 0.17421782
000010 a3 a9 c0 3c 25 91 74 3d 58 77 9e bb 4e cb 3d bd
       0.02351839 0.059708733 -0.004836004 -0.046336465
000020 a7 3e 6c bd 79 ec 70 3e c9 15 d4 bd a4 e7 a3 3d
       -0.057676937 0.23527707 -0.10355718 0.08003166
000030 27 55 a3 3e b5 b2 09 3d 7f 54 1c bc 7b 0b a8 bd
       0.31900904 0.033617694 -0.00954163 -0.08205315
000040 0e 97 ce 3d 44 90 f2 3d d4 89 c1 3a f5 3d 67 bd
       0.10087405 0.11843923 0.0014765807 -0.05645557
000050 9e 1c df 3d 88 b6 39 3d a7 ce 83 3d e3 d6 0d 3d
       0.1089413 0.04534009 0.064359 0.03462876
000060 b4 ac 92 bd 94 13 b1 3d 28 0e e8 3b ad f7 28 3e
       -0.07161847 0.08646312 0.0070817657 0.16500731
000070 7b 1a dd bd b0 15 cb bd f5 d8 c3 bd 48 bd bb 3c
       -0.107960664 -0.09916246 -0.09562866 0.022917405
000080 33 48 b2 3d 70 55 ba bd 1c 86 2e 3e 4a 39 08 3d
       0.08705177 -0.09098327 0.17043346 0.03325776
000090 1a 39 29 b8 0f b7 5d 3d 7b fe 24 3d 15 bf bb 3b
       -4.034592e-05 0.054129656 0.040281754 0.005729566
0000a0 10 2e 0d 3e 9a ae 27 3e ee 82 fd 3d 3f 3a 8e 3d
       0.13787103 0.16375199 0.123784885 0.06944703
0000b0 6f 0a 4e 3e 4c 48 02 bd ca 7b 2a 3e a6 7f e6 3a
       0.20121168 -0.03180723 0.16648784 0.001758565
0000c0 cb 32 cd 3e 32 69 88 3d 92 91 48 3e 6d c6 c6 3d
       0.40077814 0.066606894 0.1958678 0.097058155
0000d0 9a 45 26 3e 7c 1f 50 bc f9 5e f1 bc a0 03 67 3d
       0.16237488 -0.012702819 -0.029464232 0.05639994
0000e0 8c 56 b9 3b 1b 12 90 3d 86 07 1d 3e 76 8e b1 3c
       0.005656069 0.07034703 0.15334901 0.021674376
0000f0 e3 1c df 3b 6d 7c 0f 3e 37 b3 3c 3d f1 4c 34 3e
       0.0068088635 0.14012308 0.04606935 0.17607476

net.5.weight f4 [2, 64]
000000 e5 06 ad 3c ea 55 bb bd 8a e7 f1 3d b2 fc d0 3d
       0.021121452 -0.09147246 0.11811741 0.10204448
000010 c0 b7 12 bb b4 02 28 3e 47 6b 6c bd fc 88 90 bd
       -0.0022387356 0.16407281 -0.057719495 -0.07057378
000020 06 4a ea bd 08 90 bc bc 77 b2 c9 bd 96 3f 03 3e
       -0.114399 -0.023017898 -0.098484926 0.12817225
000030 9e 5c 03 3e 31 9b 30 bd 1d 90 b8 bd df 5b e1 bc
       0.128283 -0.043116752 -0.090118624 -0.027509628
000040 76 aa 95 3d d3 ae f8 3d 3c 37 d7 3d 78 f5 85 be
       0.073079035 0.1214272 0.10508582 -0.2616384
000050 62 3f b7 3d a9 1a e3 3d 70 06 ef 3d 71 b7 0d 3e
       0.08947636 0.110890694 0.1167115 0.13839509
000060 16 ac 46 bd 21 63 78 bd 0c c6 b4 bd 82 f2 e9 3c
       -0.048503958 -0.06064141 -0.08826837 0.02855802
000070 41 91 94 bd d6 e6 9e bd 30 e8 9e bd 8e e2 b5 bc
       -0.072542675 -0.07758872 -0.0775913 -0.022202756
000080 c4 ce b9 3d e3 6d 90 bd cc 95 04 3e 6e c8 95 3d
       0.090726405 -0.07052209 0.12947768 0.073136196
000090 e4 46 81 bd d2 3e 17 3c c6 54 e9 3d bb b4 1e 3e
       -0.063123494 0.009231286 0.113931224 0.1549863
0000a0 af 0a 0e bd 3c 52 b2 3d 1a 59 db 3d 05 98 21 bb
       -0.034678157 0.08707091 0.10710354 -0.002465726
0000b0 2a 8b 2c 3a c0 d5 d2 bd 04 41 17 3e 0c 35 18 3e
       0.00065820164 -0.10294676 0.14770895 0.14863986
0000c0 5e 6c 19 3e ce da cf bc aa 11 09 3e b6 8b e4 3d
       0.14982745 -0.025372889 0.13385645 0.1115946
0000d0 47 f4 8a 3c 67 b6 0d bd c8 7a 59 bd 99 da 76 bd
       0.016962184 -0.03459778 -0.05309561 -0.060267065
0000e0 b8 79 fb 3c b2 6f 32 3e a7 73 8f 3d 2f 30 87 bd
       0.030697688 0.17425421 0.07004481 -0.06600987
0000f0 ed aa e1 bd 0b ef 2e 3d 9d 66 28 bd ff 13 12 3e
       -0.1101893 0.042708438 -0.041113485 0.1426544
000100 23 f1 8c 3d c5 6d 83 3d b2 c2 88 3d 0f 45 04 3e
       0.06881931 0.06417421 0.0667776 0.12916969
000110 18 36 2c be 2e 54 0b 3e 1e 3a d7 bc 6d 13 69 bd
       -0.1681751 0.13606331 -0.02627283 -0.05690329
000120 84 a2 d4 bd 95 03 19 3e af 75 b7 3d 50 90 ad 3d
       -0.1038256 0.14942773 0.08957993 0.08474791
000130 0f 86 d4 3d 03 fe 95 bc f6 ee c2 bd 3b fe 81 bd
       0.10377132 -0.018309599 -0.095182344 -0.06347319
000140 cd 10 8a 3d 44 d6 03 3e 94 f2 0f 3e 91 e9 52 be
       0.06741486 0.12874705 0.1405738 -0.20596911
000150 63 f0 16 3d 20 9a 36 3d 4d 72 ca bc 99 c8 cf 3d
       0.036850344 0.04458058 -0.024712706 0.10145683
000160 95 10 d5 3b 12 78 16 3e 69 42 a3 bd b2 a1 a7 3d
       0.006502221 0.1469424 -0.07971651 0.08185138
000170 ec 66 87 3d a0 96 a0 bd 8b 2a b3 bd 80 fc 38 3d
       0.06611428 -0.078412294 -0.08748349 0.045162678
000180 68 22 eb 3d 00 b8 e9 bc 51 ec 99 3d 7c 8a db bd
       0.11481172 -0.02853012 0.07515777 -0.10719773
000190 96 02 e5 3c c9 6c df 3d f9 fe 13 3e bc 07 a4 be
       0.027955335 0.10909421 0.14452733 -0.3203715
0001a0 34 b4 2a 3e 6f 61 c1 3d 88 06 31 3d 57 aa ee 3d
       0.16670305 0.09442412 0.04321912 0.116535835
0001b0 db 66 d5 3d 75 34 c3 bd a1 5e 97 3d ca ac 47 be
       0.10420009 -0.0953149 0.07391096 -0.19499508
0001c0 45 14 9c 3d 5e 71 4e bd c6 79 0f 3c 98 db 83 3d
       0.076210536 -0.050401084 0.00875706 0.064383686
0001d0 6f eb 10 3e bb 4c ad bd 0f c2 0a bd 30 13 d1 bd
       0.14152311 -0.08461901 -0.033876475 -0.10208738
0001e0 a0 38 0c be 5e 2d 30 bd e6 26 80 3d 7a 1a a9 bd
       -0.13693476 -0.043012016 0.06257419 -0.08257003
0001f0 39 d6 4a 3e 60 87 fb 3d f0 60 d4 bd 0a bf 1f bc
       0.19808282 0.1228168 -0.10370052 -0.009750137

net.5.bias f4 [2]
000000 1a 8c cb 3d 48 18 37 3e
       0.099388316 0.17880356
