deam_beat_regressor_updated.pt (torch, 54693 bytes, 8 tensors)

next.0.weight f4 [128, 32]
-0.38473254 -0.08519777 0.011313933 -0.0037440308 0.016172398 0.05994579 0.05393304 0.047184747
-0.13046478 0.12599798 -0.112205505 -0.057763584 0.03696306 -0.2209153 0.11295398 -0.087366514
0.09921857 -0.16476524 0.14152776 -0.18597801 -0.04032976 -0.096805006 -0.07505061 -0.048665028
-0.05577205 -0.006807972 -0.16488187 0.007734057 -0.13558643 0.020822447 -0.10602333 0.09759375
0.15018272 -0.09488037 0.21836008 0.15606786 0.10707062 -0.025623681 0.06458623 -0.01679491
0.014333504 0.08796705 -0.15712894 0.04287732 -0.05265707 -0.17362751 -0.018902782 -0.19172202
0.119823754 -0.0018884356 0.049256396 0.094454505 0.033499755 0.118568584 0.09759885 0.14268343
-0.008892608 -0.035112005 0.15036385 0.15081064 0.04755066 0.12778026 0.096513 0.1229176
0.02347552 -0.051667493 0.06411694 -0.17037328 0.035648715 -0.117933065 -0.031860758 0.1832822
-0.041184984 0.0287085 0.044184964 -0.056252167 0.09652055 -0.06659395 0.030775137 0.09296151
0.05552966 -0.015307884 0.08399227 -0.14153436 0.23500118 -0.04826126 -0.0517628 -0.062023096
0.17790411 0.00015327935 0.15858321 0.21619602 -0.06808611 -0.23051846 -0.097253144 0.046910018
0.12618601 0.2708788 0.023319012 0.10340878 -0.19922556 0.15505934 -0.052124236 -0.07924726
0.10577847 -0.32330614 0.0058860374 -0.09572175 -0.073485814 0.09934992 -0.20831606 -0.03260188
0.01814608 0.00625516 0.10150397 -0.070638664 -0.04459196 -0.037878647 -0.099959284 -0.003722591
-0.014031202 -0.0051070484 -0.0023798028 0.122623846 0.07194339 -0.13265967 0.03639022 -0.03265828
-0.18595935 -0.23880394 0.19057599 -0.15918627 -0.059081677 0.271617 -0.07335104 0.09362333
0.04646778 -0.20889428 0.0038335156 0.0698253 -0.15449198 -0.013483049 -0.13138366 -0.041286662
0.06536938 -0.2632393 0.1656273 -0.22800715 0.015467991 -0.15320307 0.0031446547 -0.0738291
0.036110416 -0.03666901 -0.00045782028 -0.093892455 0.029619073 -0.017957486 0.10159292 -0.03300249
0.087653585 -0.2376312 0.12355694 -0.07009818 -0.13702127 -0.037777264 0.09667212 -0.070711076
-0.05798558 -0.10117987 0.074698426 -0.100127645 -0.005527893 -0.05865051 -0.013040366 0.07904398
0.037330013 -0.11144499 -0.11730958 -0.011813223 0.063786894 0.11513761 -0.023871021 -0.010305384
0.081515945 0.07092209 0.10189477 0.053918142 0.073628925 -0.012434824 -0.073824555 -0.034148984
-0.25968996 0.10893848 -0.1440995 0.16585958 0.19088812 0.20995735 -0.19877066 -0.12102529
-0.12773582 0.14279369 -0.04012657 0.06761673 -0.027827617 0.0105934795 0.11218608 -0.054260615
0.15208767 -0.3875727 0.07386273 0.11534493 -0.05035611 -0.080423795 -0.06576485 0.053781953
-0.05395544 0.0012879026 -0.060402863 -0.1076738 -0.03850755 -0.04732653 -0.17027456 0.09098562
-0.09921767 0.18575665 0.0872017 0.2187781 0.03675131 0.0062921275 -0.058342163 0.13439956
0.110419974 0.08707637 -0.10013049 -0.19821441 0.0653876 -0.2376786 0.11001028 -0.12687796
-0.06540885 0.0066502364 -0.12078671 0.022432506 -0.16042909 0.017344067 0.11283666 -0.02538682
0.09758635 0.16678356 -0.06835628 0.03722403 -0.09566593 -0.20448752 -0.031854928 0.014796589
00000000: aafb c4be 2b7c aebd 135e 393c 6a5e 75bb
00000010: fa7b 843c b789 753d e4e8 5c3d cb44 413d
00000020: 8f98 05be 9d05 013e 00cc e5bd 8299 6cbd
00000030: 9466 173d 9f37 62be 6b54 e73d 37ed b2bd
00000040: 1b33 cb3d 38b8 28be a7ec 103e 0571 3ebe
00000050: d230 25bd b441 c6bd 22b4 99bd fb54 47bd
00000060: 3c71 64bd 6915 dfbb cbd6 28be f96d fd3b
00000070: 2bd7 0abe d693 aa3c c222 d9bd 3bdf c73d
00000080: 80c9 193e a450 c2bd c999 5f3e 41d0 1f3e
00000090: d747 db3d c1e8 d1bc c945 843d 7b95 89bc
000000a0: 13d7 6a3c 1228 b43d 69e6 20be 21a0 2f3d
000000b0: f1ae 57bd 69cb 31be 02da 9abc c752 44be
000000c0: 2866 f53d 6285 f7ba 13c1 493d 5d71 c13d
000000d0: 0a37 093d 16d4 f23d e8e1 c73d 9b1b 123e
000000e0: 4db2 11bc 9bd1 0fbd fbf8 193e 1b6e 1a3e
000000f0: 7bc4 423d d4d8 023e 9ca8 c53d 39bc fb3d
00000100: bc4f c03c 4ba1 53bd be4f 833d 5576 2ebe
00000110: 6304 123d e486 f1bd 6d80 02bd 54ae 3b3e
00000120: 96b1 28bd 172e eb3c 4bfb 343d ac68 66bd
00000130: 91ac c53d 6962 88bd 241c fc3c 9b62 be3d
00000140: 1273 633d ebcd 7abc 2404 ac3d 62ee 10be
00000150: 26a4 703e 99ad 45bd 3b05 54bd ee0b 7ebd
00000160: 7f2c 363e 9db9 2039 a363 223e 7d62 5d3e
00000170: bb70 8bbd 080d 6cbe a82c c7bd b824 403d
00000180: e836 013e a0b0 8a3e 8307 bf3c fcc7 d33d
00000190: c901 4cbe e0c7 1e3e 3980 55bd 634c a2bd
000001a0: 62a2 d83d 6288 a5be a9df c03b c409 c4bd
000001b0: bb7f 96bd f977 cb3d ce50 55be 8d89 05bd
000001c0: 17a7 943c 16f8 cc3b 50e1 cf3d 01ab 90bd
000001d0: 0fa6 36bd a426 1bbd 74b7 ccbd b7f6 73bb
000001e0: 20e3 65bc 0759 a7bb 77f6 1bbb 3622 fb3d
000001f0: 0e57 933d f0d7 07be e90d 153d b0c4 05bd
00000200: 216c 3ebe 0589 74be 5a26 433e ba01 23be
00000210: a1ff 71bd 6211 8b3e 1239 96bd 97bd bf3d
00000220: 0055 3e3d 62e8 55be b83b 7b3b 9100 8f3d
00000230: 2533 1ebe 02e8 5cbc 7089 06be 341c 29bd
00000240: 62e0 853d 4dc7 86be 349a 293e b57a 69be
00000250: 756d 7d3c 44e1 1cbe 8d16 4e3b b633 97bd
00000260: 84e8 133d 3e32 16bd 9907 f0b9 b04a c0bd
00000270: b3a3 f23c 941b 93bc f30f d03d 9e2d 07bd
00000280: b983 b33d 9855 73be 6c0b fd3d a28f 8fbd
00000290: 4e4f 0cbe 55bc 1abd 08fc c53d f8d0 90bd
000002a0: 4a82 6dbd 6437 cfbd 7dfb 983d b90f cdbd
000002b0: 5423 b5bb 843b 70bd 42a7 55bc cfe1 a13d
000002c0: 5be7 183d 453d e4bd 0140 f0bd 408c 41bc
000002d0: b4a2 823d 44cd eb3d 298d c3bc ead7 28bc
000002e0: d5f1 a63d 9a3f 913d 35ae d03d 45d9 5c3d
000002f0: c3ca 963d 6fbb 4bbc 5431 97bd cedf 0bbd
00000300: 15f6 84be 231b df3d d28e 13be 18d7 293e
00000310: 2d78 433e 0fff 563e 898a 4bbe 1bdc f7bd
00000320: 2ecd 02be 8238 123e c25b 24bd a47a 8a3d
00000330: bef6 e3bc 4690 2d3c d1c1 e53d 6140 5ebd
00000340: dfbc 1b3e ee6f c6be 5845 973d f639 ec3d
00000350: 3542 4ebd 3bb5 a4bd b9af 86bd 774a 5c3d
00000360: 6100 5dbd d7ce a83a fe68 77bd 1584 dcbd
00000370: 18ba 1dbd 77d9 41bd 745c 2ebe ab56 ba3d
00000380: a232 cbbd fe36 3e3e ce96 b23d 5e07 603e
00000390: 8b88 163d 312e ce3b 31f8 6ebd 0aa0 093e
000003a0: de23 e23d 1955 b23d 3711 cdbd b8f8 4abe
000003b0: efe9 853d 0562 73be 124d e13d 4cec 01be
000003c0: 13f5 85bd 3aea d93b 065f f7bd 60c4 b73c
000003d0: 8647 24be 2515 8e3c e816 e73d 05f8 cfbc
000003e0: 5adb c73d 4fc9 2a3e 61fe 8bbd 3978 183d
000003f0: 80ec c3bd 2d65 51be 507a 02bd 646d 723c

next.0.bias f4 [128]
-0.03359678 0.004051872 -0.18440545 -0.22570641 -0.09185389 0.04937161 -0.2653853 -0.10903259
0.10623251 0.053652626 -0.11191805 -0.1379721 -0.16120158 -0.10075732 -0.29187864 -0.20340686
-0.1088275 -0.21883799 -0.12122126 -0.25599927 0.06465528 -0.38763508 -0.26820278 -0.09643208
-0.16288558 -0.19850929 0.07653131 -0.22435164 -0.17277095 -0.1691419 -0.14181498 -0.27691063
-0.027708536 -0.019802656 -0.23590986 -0.35485807 -0.15154584 -0.08324793 -0.30023015 -0.2948396
-0.22782493 -0.29250124 -0.060034648 -0.008428208 -0.035071563 -0.030666133 -0.063108504 -0.09210581
-0.06316873 -0.2904249 -0.3472846 -0.21199885 -0.18762632 -0.10459658 -0.18089065 -0.22939347
-0.1699705 -0.21958007 0.014942559 -0.102148026 -0.087105356 -0.2916807 0.04196899 -0.24928196
-0.29192412 -0.0588057 -0.118229575 -0.2787426 -0.19463657 -0.2060862 -0.046127032 -0.13068797
-0.1273668 -0.3261842 -0.30842414 -0.22142641 -0.06719388 -0.12636684 0.03411254 -0.08616701
-0.22787473 -0.03552752 -0.30353448 -0.16392745 0.015605846 -0.14073016 -0.046821766 -0.15963133
-0.29554248 0.035710927 -0.07191048 -0.2486319 -0.05049451 -0.28306103 -0.044687852 0.035234094
-0.32685345 -0.19571629 -0.057295997 0.065634005 -0.25843206 -0.09099833 -0.06415578 -0.06353189
-0.08947978 -0.25988698 -0.11357669 -0.3093955 -0.224853 -0.13577858 -0.20293361 0.050911337
-0.2305878 -0.1585165 -0.2658006 -0.06369243 -0.22365192 -0.25360492 0.09772133 -0.2640744
-0.18386778 -0.11239279 0.0662571 0.028382739 -0.10497067 -0.18413965 0.016027043 -0.2791926
00000000: c79c 09bd 91c5 843b c8d4 3cbe 951f 67be
00000010: e41d bcbd e339 4a3d 95e0 87be 7b4c dfbd
00000020: 6e90 d93d dbc2 5b3d 4a35 e5bd 8f48 0dbe
00000030: 0712 25be db59 cebd 1e71 95be e349 50be
00000040: f4e0 debd 1117 60be da42 f8bd 5612 83be
00000050: fd69 843d 1b78 c6be e051 89be 2f7e c5bd
00000060: 7acb 26be 0546 4bbe 73bc 9c3d 70bc 65be
00000070: deea 30be 8933 2dbe f237 11be 3bc7 8dbe
00000080: 03fd e2bc 2e39 a2bc 5b92 71be f5af b5be
00000090: d52e 1bbe e47d aabd c4b7 99be 37f5 96be
000000a0: f04a 69be b9c2 95be e4e6 75bd 7716 0abc
000000b0: 33a7 0fbd 8b37 fbbc 083f 81bd f9a1 bcbd
000000c0: 9b5e 81bd 93b2 94be 49cf b1be 3a16 59be
000000d0: 1d21 40be bb36 d6bd 663b 39be 1fe6 6abe
000000e0: bf0c 2ebe 99d9 60be a3d1 743c fc32 d1bd
000000f0: 4b64 b2bd 2c57 95be ade7 2b3d c543 7fbe
00000100: 1477 95be 3fde 70bd 5922 f2bd 5ab7 8ebe
00000110: cf4e 47be 4308 53be b3ef 3cbd 11d3 05be
00000120: 716c 02be 9e01 a7be c5e9 9dbe 9bbd 62be
00000130: f29c 89bd 4f66 01be 97b9 0b3d 5478 b0bd
00000140: fe57 69be 4e85 11bd df68 9bbe 99dc 27be
00000150: aaaf 7f3c 911b 10be 2ec8 3fbd 6576 23be
00000160: 5851 97be 9f45 123d cd45 93bd 5c99 7ebe
00000170: 55d3 4ebd 60ed 90be 9c0a 37bd a051 103d
00000180: 5659 a7be da69 48be 35af 6abd 1f6b 863d
00000190: 3551 84be 555d babd 1b64 83bd 021d 82bd
000001a0: 2d41 b7bd e80f 85be e59a e8bd 1669 9ebe
000001b0: dd3f 66be 8a09 0bbe d4cd 4fbe 6888 503d
000001c0: 351f 6cbe 2652 22be 0417 88be 2d71 82bd
000001d0: 0205 65be 81d8 81be 1f22 c83d c234 87be
000001e0: d647 3cbe 312e e6bd cdb1 873d eb82 e83c
000001f0: ddfa d6bd 1b8f 3cbe 254b 833c 55f2 8ebe

next.3.weight f4 [64, 128]
-0.019811083 -0.2278613 -0.045132928 0.10060277 0.00055106654 -0.08003538 -0.023340559 0.11016105
-0.07885348 -0.12391209 0.16767238 -0.032281663 0.026232183 0.02495972 -0.048974693 -0.274035
-0.049257632 -0.025523327 -0.06683934 -0.10031324 -0.080159485 0.03550123 0.028193997 0.0018677408
-0.38773835 0.03259467 0.054538883 0.019268684 -0.065624185 0.053895794 0.1995505 -0.003130447
0.16981313 0.037076242 -0.20931806 -0.3961008 -0.016985755 0.11468877 -0.054646283 0.049034167
0.058264248 0.03599063 -0.039200954 -0.1279836 0.025893996 0.05860146 -0.2515951 -0.0020179986
0.02562443 -0.15345564 0.066945806 -0.2635214 -0.121401556 0.06396308 -0.00073802564 -0.16987844
0.047772866 0.0466351 -0.20677619 0.07544901 0.09870047 -0.19808316 -0.07134735 -0.11602525
-0.17265128 -0.17528248 0.08888585 -0.021721683 -0.006226297 -0.01431303 -0.13406734 -0.41375807
0.01003341 -0.04339438 -0.043408222 0.09658601 -0.11089839 -0.021300793 -0.13864827 0.028825758
0.03871965 -0.051608004 -0.17835529 -0.31967902 -0.084810995 -0.030310633 0.12619863 0.062995255
-0.07027326 -0.009670044 -0.017673194 -0.11021739 0.048551198 -0.0070061134 0.034464195 0.1049494
0.012579658 0.010828713 0.08290861 -0.059440203 0.07582016 -0.25491235 -0.015542711 -0.04514358
0.038157463 0.029496444 -0.1479306 -0.10605396 -0.073793486 -0.10347528 0.055684548 -0.061081387
-0.12126032 -0.06909552 0.12433878 -0.09524451 -0.081581175 -0.041341614 0.13897535 -0.0713261
-0.028199952 0.10626512 0.06765949 -0.35692647 -0.023212384 -0.186236 -0.13090995 0.016589647
-0.090025276 0.020299263 0.021203652 0.018250145 0.04315527 0.064770326 -0.035383977 -0.16747919
-0.104948364 -0.1699885 0.01895021 -0.04942697 -0.09889998 -0.06633772 0.05221301 -0.17448923
0.06653225 0.06589593 -0.010105823 0.0056678313 0.042027343 -0.017210148 -0.096279815 -0.0004145411
-0.21747845 -0.22074713 -0.109685734 0.01640567 -0.0456433 0.1580747 -0.13662088 0.12540002
-0.121572845 -0.29157487 0.09071118 0.07731829 -0.0038760917 -0.083105356 -0.068086155 0.14947419
-0.15868038 -0.2844219 -0.05453086 -0.12620002 -0.008156287 -0.04885639 0.004234206 -0.018598545
0.030715885 0.015568759 -0.044282388 -0.011381358 -0.048574634 -0.0018591261 0.011811172 -0.033502318
-0.1094561 -0.087875895 0.11576604 -0.12460192 0.05604231 -0.07758246 0.052583974 -0.09609032
0.06899739 -0.027376791 -0.16358241 -0.044657428 -0.042702787 -0.06985681 0.030416725 -0.12279379
-0.1467395 -0.13059753 -0.24872354 -0.12425025 0.011699736 -0.12880751 0.13436566 -0.23008032
0.024541479 -0.024217002 -0.00029746484 0.0054418785 -0.06007171 -0.023399463 -0.25834656 0.013556361
-0.17056558 -0.041821368 -0.06535492 -0.1419097 0.009107509 0.048809025 -0.07353871 -0.16279772
0.13728957 0.017329365 -0.16032535 0.05918039 -0.16652603 -0.034475796 -0.28153455 -0.03697544
0.03667876 -0.09322991 -0.024614772 -0.13424154 -0.13735828 0.04703715 -0.11892158 -0.021342475
-0.03348943 0.06702559 -0.05775574 -0.030459616 -0.08268981 0.0044782404 -0.13669722 -0.06020481
-0.105350204 -0.068111695 -0.18548898 -0.0353705 -0.013455385 0.004348158 0.04666696 -0.017137421
00000000: da4a a2bc 7954 69be 4edd 38bd d308 ce3d
00000010: 7375 103a 97e9 a3bd b334 bfbc 1e9c e13d
00000020: ef7d a1bd 9fc5 fdbd 4fb2 2b3e c739 04bd
00000030: e0e4 d63c 5478 cc3c b099 48bd 514e 8cbe
00000040: 5fc2 49bd 4c16 d1bc 10e3 88bd 0771 cdbd
00000050: a82a a4bd bd69 113d 19f7 e63c fbce f43a
00000060: a485 c6be fd81 053d 2a64 5f3d 5cd9 9d3c
00000070: f965 86bd d6c1 5c3d f756 4c3e 2f28 4dbb
00000080: 7ee3 2d3e 42dd 173d 7957 56be b9cd cabe
00000090: b625 8bbc f2e1 ea3d c8d4 5fbd 0dd8 483d
000000a0: 7ea6 6e3d e96a 133d 2e91 20bd 220e 03be
000000b0: a51f d43c 1608 703d 13d1 80be 6640 04bb
000000c0: 53ea d13c 7a23 1dbe e21a 893d 47ec 86be
000000d0: 61a1 f8bd 13ff 823d 1078 41ba 9df4 2dbe
000000e0: 7bad 433d 7204 3f3d 23bd 53be 0385 9a3d
000000f0: 7923 ca3d 50d6 4abe 8f1e 92bd a59e edbd
00000100: 7fcb 30be 407d 33be c909 b63d acf1 b1bc
00000110: f705 ccbb 3381 6abc f348 09be 19d8 d3be
00000120: 2c63 243c 4ebe 31bd d2cc 31bd e3ce c53d
00000130: b21e e3bd 007f aebc d0f9 0dbe ff23 ec3c
00000140: 7f98 1e3d ea62 53bd c5a2 36be f8ac a3be
00000150: 63b1 adbd 014e f8bc 373a 013e a803 813d
00000160: 6deb 8fbd 1b6f 1ebc 60c7 90bc a8b9 e1bd
00000170: 9fdd 463d 8a93 e5bb 542a 0d3d b6ef d63d
00000180: e91a 4e3c ea6a 313c fdcb a93d 9277 73bd
00000190: 9a47 9b3d df83 82be dba6 7ebc 79e8 38bd
000001a0: 004b 1c3d 87a2 f13c 1f7b 17be d232 d9bd
000001b0: 0a21 97bd d9ea d3bd 7b15 643d 7a30 7abd
000001c0: 5557 f8bd f481 8dbd 55a5 fe3d 8e0f c3bd
000001d0: 0814 a7bd d355 29bd 8e4f 0e3e 6b13 92bd
000001e0: 9603 e7bc 87a1 d93d 0f91 8a3d 11bf b6be
000001f0: e627 bebc a6b4 3ebe 420d 06be 03e7 873c
00000200: 2c5f b8bd a44a a63c 48b3 ad3c 5481 953c
00000210: 95c3 303d 4ea6 843d caee 10bd aa7f 2bbe
00000220: 2bef d6bd 7711 2ebe 793d 9b3c ef73 4abd
00000230: 138c cabd 12dc 87bd 4fdd 553d 4ead 32be
00000240: 0f42 883d 72f4 863d e592 25bc 37b9 b93b
00000250: dd24 2c3d 4cfc 8cbc 5a2e c5bd c456 d9b9
00000260: acb2 5ebe 890b 62be eaa2 e0bd 2f65 863c
00000270: 78f4 3abd 56de 213e 58e6 0bbe dd68 003e
00000280: 2ffb f8bd 4d49 95be c8c6 b93d 0d59 9e3d
00000290: 0706 7ebb 2433 aabd c170 8bbd c30f 193e
000002a0: 1c7d 22be bf9f 91be c05b 5fbd 943a 01be
000002b0: f2a1 05bc a31d 48bd 18bf 8a3b fa5b 98bc
000002c0: e19f fb3c 1c14 7f3c 7361 35bd e078 3abc
000002d0: 32f6 46bd ecad f3ba a583 413c ba39 09bd
000002e0: 852a e0bd 47f8 b3bd bf16 ed3d 4b2f ffbd
000002f0: 9f8c 653d 8ee3 9ebd 4b62 573d 00cb c4bd
00000300: 814e 8d3d 4b45 e0bc 2682 27be b5ea 36bd
00000310: 1ee9 2ebd 1611 8fbd 7f2c f93c 507b fbbd
00000320: e142 16be 5cbb 05be 62b1 7ebe ea76 febd
00000330: 40b0 3f3c 1ee6 03be 2797 093e 2d9a 6bbe
00000340: 360b c93c bc62 c6bc 0ef5 9bb9 c951 b23b
00000350: c10d 76bd 3bb0 bfbc 0046 84be 801b 5e3c
00000360: bea8 2ebe e24c 2bbd cdd8 85bd c750 11be
00000370: a937 153c f9eb 473d 779b 96bd 72b4 26be
00000380: a395 0c3e 50f6 8d3c 542c 24be 2367 723d
00000390: cd85 2abe 7e36 0dbd 4c25 90be 8f73 17bd
000003a0: 783c 163d 53ef bebd eba4 c9bc 9d76 09be
000003b0: a6a7 0cbe 07aa 403d 288d f3bd 6ad6 aebc
000003c0: 362c 09bd b644 893d 4891 6cbd 7286 f9bc
000003d0: 4659 a9bd 34be 923b 5bfa 0bbe 5299 76bd
000003e0: d9c1 d7bd 257e 8bbd d3f0 3dbe a8e0 10bd
000003f0: fa73 5cbc fe7a 8e3b db25 3f3d c763 8cbc

next.3.bias f4 [64]
0.09473824 -0.107401684 0.1654536 -0.004866981 -0.089634925 0.16474342 0.014342637 0.1961019
0.0048090727 0.18383896 -0.089167714 0.19666544 0.029743109 -0.07082117 0.013759781 0.007992417
-0.10237253 0.10935094 -0.09030234 -0.03888361 -0.10922535 0.20462316 -0.089666106 -0.15104327
0.06742849 0.056903213 0.18569534 0.16102804 -0.008521262 0.23519632 0.089519694 -0.052084047
-0.027068295 0.0516329 -0.2750205 -0.02100113 -0.049499877 -0.011704499 0.22364211 0.26736993
-0.044401906 -0.014304329 0.13776161 0.09661691 0.16998157 0.16681871 -0.099392384 0.029253203
-0.13718778 -0.10795681 -0.13212076 -0.098638535 0.037377577 -0.10201252 0.018503614 0.013104035
-0.08548488 0.060175728 -0.08886586 0.28857175 -0.16736007 -0.013678352 0.21976523 0.032267366
00000000: 1f06 c23d 6af5 dbbd ab6c 293e 327b 9fbb
00000010: 8492 b7bd 80b2 283e 61fd 6a3c f0ce 483e
00000020: 6d95 9d3b 4840 3c3e 909d b6bd aa62 493e
00000030: d2a7 f33c b10a 91bd b470 613c a0f2 023c
00000040: b0a8 d1bd 63f3 df3d 6ff0 b8bd 6c44 1fbd
00000050: 8ab1 dfbd bc88 513e dda2 b7bd 16ab 1abe
00000060: f317 8a3d 5813 693d eb26 3e3e 89e4 243e
00000070: c39c 0bbc 4ed7 703e 1a56 b73d 1556 55bd
00000080: 54be ddbc 057d 533d 7dcf 8cbe 900a acbc
00000090: 62c0 4abd 3ac4 3fbc 7002 653e b6e4 883e
000000a0: c6de 35bd b45c 6abc 6111 0d3e 16df c53d
000000b0: a60f 2e3e 86d2 2a3e 3c8e cbbd 6aa4 ef3c
000000c0: f47a 0cbe 7618 ddbd aa4a 07be 0003 cabd
000000d0: 3b19 193d f1eb d0bd e494 973c 4eb2 563c
000000e0: b212 afbd d37a 763d 4eff b5bd adbf 933e
000000f0: 7060 2bbe 2b1b 60bc 230a 613e c92a 043d

next.5.weight f4 [2, 64]
-0.15309504 -0.2092461 0.03597181 0.05554879 -0.21876694 0.062346242 -0.05441883 0.10526637
0.08860812 0.063230194 -0.19600992 0.103283875 0.0962524 -0.16049185 0.05374836 0.11683112
-0.06669382 0.03223276 -0.13985544 0.124752834 -0.078065306 0.013375934 0.007935651 -0.11066744
0.13264167 0.14033554 0.02875415 -0.049479797 -0.19365653 0.07858639 0.1419432 -0.08310393
-0.047915727 -0.018105961 -0.10155766 0.018496947 -0.28439426 0.13338873 0.09152049 0.059931595
0.02466035 -0.23600727 0.15242219 -0.019405814 0.19308718 0.10323174 -0.24302761 -0.109524526
0.09925524 -0.15094528 -0.0556986 -0.12568668 0.1064494 -0.010696198 -0.08495885 -0.1494427
0.16937818 0.104447 -0.12905756 0.090831645 -0.15978004 -0.066088825 -0.01897073 -0.09816347
0.0059145843 0.032204784 0.119891725 -0.08951246 0.022460224 0.07529681 0.07987986 0.10628332
0.18672557 0.10268818 -0.1745671 0.087115526 -0.015288761 -0.009215609 -0.11475794 0.040422816
-0.1086012 0.06298526 0.17613974 -0.036033884 -0.081263684 0.07278311 -0.1293019 -0.09884945
0.06412167 0.0979413 0.10114167 0.14276554 -0.122612424 0.08420505 0.035943706 0.091773994
-0.12685023 0.12195754 -0.1674046 -0.10883252 0.102293864 -0.006864623 0.1501871 0.13290076
-0.10076018 0.0066322084 0.025078526 0.0693031 0.15779924 0.018735921 -0.03016598 0.0008420304
0.0840535 -0.20982975 -0.048311025 -0.09781614 0.08709033 -0.06498338 -0.02921966 -0.14805
-0.07078536 0.030752243 -0.09836928 0.07939927 -0.046687655 -0.09029058 0.15164141 0.08512883
00000000: f2c4 1cbe 9c44 56be 2d57 133d 2187 633d
00000010: 7104 60be c65e 7f3d 47e6 5ebd e595 d73d
00000020: 2d78 b53d d57e 813d d3b6 48be 7f86 d33d
00000030: fa1f c53d fa57 24be 3e27 5c3d 2745 ef3d
00000040: c596 88bd 8006 043d 4436 0fbe 6a7e ff3d
00000050: b4e0 9fbd bc26 5b3c 8804 023c 9ca5 e2bd
00000060: 38d3 073e 1fb4 0f3e d38d eb3c 54ab 4abd
00000070: e64d 46be e7f1 a03d 8f59 113e 6532 aabd
00000080: 4843 44bd f452 94bc 76fd cfbd e986 973c
00000090: 209c 91be 0e97 083e 186f bb3d d57a 753d
000000a0: 8104 ca3c e4ab 71be 9014 1c3e f1f8 9ebc
000000b0: a5b8 453e 2a6b d33d 3bdc 78be 654e e0bd
000000c0: 5546 cb3d 6691 1abe 3724 64bd 02b4 00be
000000d0: 2502 da3d 1b3f 2fbc e8fe adbd 8207 19be
000000e0: 7971 2d3e 4fe8 d53d aa27 04be f105 ba3d
000000f0: 619d 23be 9459 87bd 8168 9bbc ee09 c9bd
00000100: 21cf c13b 2ae9 033d cb89 f53d 4f52 b7bd
00000110: 81fe b73c 3735 9a3d 0d98 a33d 12ab d93d
00000120: fd34 3f3e 2e4e d23d b8c1 32be a069 b23d
00000130: b67d 7abc 11fd 16bc 3606 ebbd 6592 253d
00000140: 4e6a debd 6afe 803d fa5d 343e 4498 13bd
00000150: 936d a6bd 500f 953d b867 04be 9571 cabd
00000160: 3952 833d 7395 c83d 5d23 cf3d 2131 123e
00000170: 391c fbbd b273 ac3d b539 133d 01f4 bb3d
00000180: 07e5 01be e0c4 f93d 1d6c 2bbe 96e3 debd
00000190: 727f d13d a2f0 e0bb a6ca 193e 2317 083e
000001a0: 5a5b cebd ff52 d93b 7b71 cd3c c9ee 8d3d
000001b0: 2096 213e 137c 993c a51e f7bc b4bb 5c3a
000001c0: 3e24 ac3d 9cdd 56be c8e1 45bd d453 c8bd
000001d0: 6a5c b23d 0216 85bd 125e efbc 6b9a 17be
000001e0: eaf7 90bd 21ec fb3c d575 c9bd 169c a23d
000001f0: 8e3b 3fbd 45ea b8bd e347 1b3e 0658 ae3d

next.5.bias f4 [2]
0.054042015 0.039432146
00000000: 295b 5d3d 9a83 213d

mean f4 [32]
-175.41994 115.82591 -2.2835503 26.587702 4.623179 6.5532336 -0.98836774 3.1259356
-3.8203566 1.3210366 -3.7711287 0.3092824 -3.740426 -0.9019976 -4.046677 -0.33928266
-4.068877 -0.5386183 -3.5584924 -0.9323287 0.23749988 0.2183177 0.26921988 0.21567331
0.26367864 0.22229005 0.22987823 0.27218592 0.22661157 0.2710071 0.20864117 0.22663492
00000000: 816b 2fc3 dea6 e742 b025 12c0 9db3 d441
00000010: 15f1 9340 17b4 d140 ab05 7dbf 540f 4840
00000020: b980 74c0 ba17 a93f 2c5a 71c0 435a 9e3e
00000030: 2463 6fc0 51e9 66bf 617e 81c0 75b6 adbe
00000040: 3e34 82c0 e4e2 09bf 57be 63c0 18ad 6ebf
00000050: 2b33 733e ad8e 5f3e 30d7 893e 77d9 5c3e
00000060: e300 873e 01a0 633e 3365 6b3e f45b 8b3e
00000070: dd0c 683e 71c1 8a3e 08a6 553e fc12 683e

std f4 [32]
101.378456 41.60318 30.133497 19.026024 14.274262 14.099704 10.629836 10.45885
10.292328 9.457563 8.584432 9.081108 7.9486814 7.916051 7.517007 7.420158
7.19413 7.1804132 7.188529 7.516419 0.16464348 0.14649716 0.16916312 0.14786372
0.16695142 0.14921397 0.14452954 0.16641043 0.14545527 0.17138807 0.14839998 0.15541278
00000000: c5c1 ca42 a869 2642 6711 f141 4c35 9841
00000010: 6163 6441 6398 6141 cf13 2a41 7357 2741
00000020: 60ad 2441 2e52 1741 d559 0941 384c 1141
00000030: 995b fe40 4a50 fd40 528b f040 ef71 ed40
00000040: 5036 e640 f2c5 e540 6e08 e640 8186 f040
00000050: 4d98 283e 5a03 163e 1939 2d3e 9669 173e
00000060: 50f5 2a3e 8ccb 183e 8dff 133e 7f67 2a3e
00000070: 3af2 143e 5b80 2f3e 2af6 173e 8724 1f3e
