emotion_regressor.pt (torch, 104345 bytes, 8 tensors)

net.0.weight f4 [128, 128]
0.03733075 -0.088509515 0.08558632 0.022527842 -0.09072765 0.07972514 0.0034335554 0.019867472
0.11214218 0.08749645 -0.09337124 0.14896592 0.14289472 0.014445826 0.019645475 0.056257606
-0.045075383 0.013040155 -0.0075520114 0.030730516 0.06561065 0.00039882035 0.0015750038 -0.022174612
-0.025132902 0.012308434 -0.032666963 0.001085666 -0.03931337 0.028277546 0.06734562 0.08384656
-0.09699106 0.07077422 -0.010121753 0.104551114 0.0932171 0.062612325 0.052572206 0.0050168377
0.072194405 0.06435136 -0.031603362 0.05515534 -0.06271549 0.039879385 -0.077484794 0.009593603
0.093945965 -0.034127034 0.012194349 -0.022789089 -0.008226447 -0.07834602 0.011491677 0.0035733168
0.00594562 0.034311246 -0.018100271 0.02447074 -0.095357895 0.03544876 0.094867654 0.057042662
0.07190247 -0.044623833 0.065599136 -0.056028586 -0.029601237 0.039046057 -0.033156186 -0.031142868
0.018503843 -0.09257613 0.06684163 -0.05616589 0.014743389 -0.05994066 0.0014476065 -0.057441536
-0.10959024 -0.05290858 -0.1247459 0.00048640353 -0.090797886 -0.04813623 0.0050958404 -0.033518218
0.11290384 0.062742345 0.09127143 0.08895625 0.0072611514 -0.078931056 -0.057057258 -0.16229457
-0.05944906 -0.0115452325 0.047745842 0.04282911 -0.008371318 0.08888025 -0.015050208 0.11782875
0.1430465 0.09402851 0.0025386554 -0.064440794 0.018268673 0.057887595 0.051877353 -0.08093926
-0.008343557 -0.09929733 -0.023833744 -0.020889644 -0.014798825 0.10651854 -0.12850532 0.033371974
0.07440402 0.04579426 0.103792205 0.02911154 -0.004399116 0.08779771 0.034991518 0.04593924
0.11791609 -0.106148146 -0.105442174 0.15344803 0.014962135 0.11828295 0.071306914 -0.06347404
0.02183147 0.058242597 0.0057322877 0.04702853 -0.08285984 -0.0012400268 -0.020524109 0.0708506
-0.09468507 0.0069747255 -0.074506186 -0.06700792 -6.141649e-05 0.0033636778 -0.048000026 -0.025330441
-0.030158387 -0.011528564 -0.06489988 0.048049446 -0.05151264 -0.080514945 0.003033009 0.0142365
0.019634388 0.057371907 -0.011800535 -0.064997256 -0.07849316 0.061634388 0.06861648 -0.069842055
-0.094578125 0.09481214 0.036178637 0.14275911 -0.043216422 0.08494209 0.023911584 -0.014824329
-0.02550171 -0.00026756123 0.094507344 -0.0758941 0.048436686 -0.07838018 0.016549578 0.03501128
-0.10661813 -0.07261947 -0.04401942 -0.004043095 0.05170104 0.10765622 0.004989029 0.014328876
-0.018208595 0.008036077 -0.010421941 -0.021263115 0.12202333 -0.046170257 0.04479604 0.08754698
0.07602335 0.025796996 0.09264002 0.023970954 -0.09570528 0.09864054 0.06454937 0.04592383
-0.0461755 0.03439525 -0.013886086 0.052701984 -0.022665631 0.030005673 -0.00588312 -0.08052155
0.051686652 0.11054999 -0.033089187 -0.11841835 -0.018671613 0.07153501 0.07384906 -0.013365377
-0.009614365 -0.06691091 0.028377468 -0.0228986 -0.10297559 -0.054197043 -0.028403383 0.046512507
-0.042229485 0.06274107 0.024750635 0.049768828 0.019499326 0.07591423 0.0378487 -0.036895797
-0.0061983066 -0.083367646 -0.04235449 -0.10369763 -0.04972231 0.05873196 -0.010457161 0.057424672
-0.0037230118 0.091846526 -0.12539199 0.0043816385 0.0061466186 0.042968873 -0.0670174 -0.054398835
00000000: 21e8 183d 7a44 b5bd e147 af3d 4f8c b83c
00000010: 6bcf b9bd ef46 a33d 8005 613b 1cc1 a23c
00000020: cdaa e53d 5731 b33d 6c39 bfbd 868a 183e
00000030: fe52 123e 30ae 6c3c 8cef a03c 606e 663d
00000040: f7a0 38bd 60a6 553c dd76 f7bb 90be fb3c
00000050: e05e 863d c318 d139 5c70 ce3a 88a7 b5bc
00000060: 84e3 cdbc 50a9 493c cbcd 05bd e84c 8e3a
00000070: 0e07 21bd 50a6 e73c 80ec 893d bfb7 ab3d
00000080: 40a3 c6bd 13f2 903d b6d5 25bc e51e d63d
00000090: 9be8 be3d e43a 803d f455 573d 4964 a43b
000000a0: a9da 933d a5ca 833d 8772 01bd 91ea 613d
000000b0: fb70 80bd 9158 233d 59b0 9ebd 7d2e 1d3c
000000c0: be66 c03d cac8 0bbd cfca 473c 2fb0 babc
000000d0: 38c8 06bc e173 a0bd 9647 3c3c 4f2e 6a3b
000000e0: 7ad3 c23b f389 0c3d 0547 94bc dd76 c83c
000000f0: 004b c3bd b832 113d f949 c23d 91a5 693d
00000100: 9a41 933d 7bc7 36bd d758 863d 3b7e 65bd
00000110: 4b7e f2bc c2ee 1f3d c8ce 07bd 541f ffbc
00000120: 5f95 973c 8e98 bdbd 44e4 883d 340e 66bd
00000130: 418e 713c 5684 75bd 9dbd bd3a d147 6bbd
00000140: d970 e0bd abb6 58bd c77a ffbd fa03 ff39
00000150: 3ef4 b9bd 7f2a 45bd 02fb a63b 664a 09bd
00000160: 213a e73d 0f7f 803d 84ec ba3d b22e b63d
00000170: f4ee ed3b 9ba6 a1bd dfb4 69bd 8c30 26be
00000180: dc80 73bd 3728 3dbc 2591 433d 946d 2f3d
00000190: da27 09bc d906 b63d 2695 76bc 3350 f13d
000001a0: c87a 123e 0592 c03d 925f 263b 89f9 83bd
000001b0: 2fa8 953c 8b1b 6d3d 597d 543d 7cc3 a5bd
000001c0: 6ab3 08bc 665c cbbd fc3e c3bc c220 abbc
000001d0: c576 72bc 6426 da3d e696 03be 0db1 083d
000001e0: 2361 983d c392 3b3d 0291 d43d 537b ee3c
000001f0: 7626 90bb 49cf b33d 4453 0f3d c92a 3c3d
00000200: fe7d f13d 3364 d9bd 11f2 d7bd 7b21 1d3e
00000210: be23 753c 553e f23d 5c09 923d adfe 81bd
00000220: e9d7 b23c ca8f 6e3d ead5 bb3b fda0 403d
00000230: 6bb2 a9bd 6588 a2ba 2d22 a8bc 1f1a 913d
00000240: 3fea c1bd 3d8c e43b b396 98bd 733b 89bd
00000250: bacc 80b8 2671 5c3b ad9b 44bd c981 cfbc
00000260: b90e f7bc 4de2 3cbc 3aea 84bd 7fcf 443d
00000270: ebfe 52bd 05e5 a4bd 72c5 463b 3540 693c
00000280: 4cd8 a03c cefe 6a3d 0857 41bc 481d 85bd
00000290: 06c1 a0bd 5774 7c3d cc86 8c3d 5a09 8fbd
000002a0: 2db2 c1bd de2c c23d 0d30 143d 722f 123e
000002b0: b403 31bd 1ef6 ad3d 3ae2 c33c bee1 72bc
000002c0: f6e8 d0bc 7647 8cb9 118d c13d 5e6e 9bbd
000002d0: 8c65 463d ca85 a0bd fb92 873c fd67 0f3d
000002e0: 9b5a dabd 84b9 94bd b54d 34bd f07b 84bb
000002f0: 78c4 533d dd7a dc3d 027b a33b a9c3 6a3c
00000300: 312a 95bc c0a9 033c cac0 2abc fc2f aebc
00000310: 5ee7 f93d 061d 3dbd 0d7c 373d d54b b33d
00000320: 21b2 9b3d 3954 d33c 0dba bd3d bc5e c43c
00000330: 2101 c4bd 0d04 ca3d 7632 843d a01a 3c3d
00000340: 8522 3dbd 09e2 0c3d 7782 63bc 09de 573d
00000350: 46ad b9bc 75ce f53c 30c7 c0bb 7be8 a4bd
00000360: 62b5 533d 0868 e23d 8788 07bd 5285 f2bd
00000370: 36f5 98bc f380 923d 2d3e 973d 74fa 5abc
00000380: 9285 1dbc 9608 89bd dd77 e83c d895 bbbc
00000390: dee4 d2bd b8fd 5dbd 36ae e8bc e683 3e3d
000003a0: d3f8 2cbd 647e 803d d8c1 ca3c 66da 4b3d
000003b0: 0dbd 9f3c eb78 9b3d 3d07 1b3d 0c20 17bd
000003c0: 2a1b cbbb a8bc aabd e77b 2dbd 6c5f d4bd
000003d0: 9fa9 4bbd ec90 703d 8354 2bbc 2236 6b3d
000003e0: c6fd 73bb 081a bc3d c266 00be d993 8f3b
000003f0: 9369 c93b 2100 303d 6b40 89bd 50d1 5ebd

net.0.bias f4 [128]
-0.03372497 -0.07543876 -0.033853535 0.012171469 -0.046714753 -0.040852863 0.06410347 -0.03655431
-0.063352846 -0.06565459 -0.028797103 0.019890603 0.026144534 0.008328232 0.043134335 0.018402053
-0.056585345 -0.04371452 -0.025950627 0.048368596 0.029806325 -0.030068874 -0.025275687 0.010393195
-0.0273571 0.067756586 0.07698782 -0.057500374 0.01284897 0.023555072 -0.026054226 -0.06584995
-0.01569845 -0.025936373 -0.025538445 -0.025492722 0.03612215 -0.023333495 0.08519986 0.08028439
-0.07148845 0.025957454 -0.06664268 -0.056421634 -0.06083159 -0.1106688 0.026664818 0.033192288
-0.04722354 -0.049650133 0.05786457 -0.057226133 -0.030429909 0.033283856 -0.023793163 0.048439566
0.027128803 -0.0019531178 0.020725582 -0.056537546 -0.068993345 0.11432006 -0.041116737 -0.05348083
0.042593706 0.042189997 -0.08002211 -0.022622405 -0.041298974 -0.07017021 -0.01857205 0.005461507
0.027551834 0.063424654 0.04604294 0.0725065 -0.043091808 -0.056272727 0.08183868 0.07413162
0.026615618 0.011096108 -0.015011064 -0.011331795 0.072434604 -0.010419868 0.017350772 -0.09496111
-0.002682372 0.019927116 -0.05814248 0.07189235 0.01992316 -0.04894951 0.04153056 0.059475113
0.09569894 -0.014882099 0.020327074 -0.02715894 -0.032527965 -0.03877064 0.046661604 -0.05207002
0.07011375 -0.009947604 -0.008461184 0.015848313 0.047668763 -0.012693459 0.051889095 -0.040140066
0.025773013 0.05013101 -0.032149445 -0.0874582 0.042554207 -0.072499484 -0.06579782 0.030581106
-0.08814068 -0.056015763 -0.07923855 -0.0429164 0.073355034 -0.032077055 0.007715605 -0.02186335
00000000: 3223 0abd a37f 9abd 01aa 0abd d76a 473c
00000010: f857 3fbd 5555 27bd ae48 833d f9b9 15bd
00000020: 23bf 81bd ea75 86bd e7e7 ebbc 9ef1 a23c
00000030: 102d d63c 2373 083c a1ad 303d e7bf 963c
00000040: 09c6 67bd ff0d 33bd 6996 d4bc 261e 463d
00000050: 652c f43c 0053 f6bc f50e cfbc 3848 2a3c
00000060: ff1b e0bc f7c3 8a3d caab 9d3d 8385 6bbd
00000070: 7c84 523c 91f6 c03c ac6f d5bc 57dc 86bd
00000080: 099a 80bc 8478 d4bc 0036 d1bc 1dd6 d0bc
00000090: d2f4 133d e325 bfbc 447d ae3d 246c a43d
000000a0: 8968 92bd baa4 d43c f57b 88bd 5f1a 67bd
000000b0: 8c2a 79bd 53a6 e2bd 2d70 da3c a3f4 073d
000000c0: 786d 41bd f05d 4bbd 6603 6d3d f365 6abd
000000d0: 2548 f9bc a754 083d e1e9 c2bc 9168 463d
000000e0: 393d de3c c2ff ffba b2c8 a93c ea93 67bd
000000f0: 624c 8dbd a320 ea3d 066a 28bd b70e 5bbd
00000100: bd76 2e3d 6bcf 2c3d a2e2 a3bd 9f52 b9bc
00000110: 1d29 29bd 66b5 8fbd 6924 98bc 71f6 b23b
00000120: 62b4 e13c c9e4 813d 8697 3c3d 4a7e 943d
00000130: 0981 30bd 3b7e 66bd 0a9b a73d 52d2 973d
00000140: ff08 da3c 73cc 353c f7f0 75bc fea8 39bc
00000150: 9858 943d 18b8 2abc 3523 8e3c f87a c2bd
00000160: bcca 2fbb 313e a33c cf26 6ebd 4c3c 933d
00000170: e535 a33c 487f 48bd f31b 2a3d 2d9c 733d
00000180: cefd c33d 0cd4 73bc f784 a63c 6d7c debc
00000190: 0b3c 05bd f6cd 1ebd 3d20 3f3d 6047 55bd
000001a0: cc97 8f3d 46fb 22bc c7a0 0abc 52d4 813c
000001b0: 5240 433d 3af8 4fbc a989 543d e969 24bd
000001c0: ed21 d33c 2d56 4d3d 23af 03bd 491d b3bd
000001d0: 524d 2e3d 9c7a 94bd 02c1 86bd 3a85 fa3c
000001e0: 1a83 b4bd c970 65bd d247 a2bd 1bc9 2fbd
000001f0: 2a3b 963d 3b63 03bd 30d3 fc3b c51a b3bc

net.2.weight f4 [64, 128]
0.048661772 0.045398448 0.085461155 -0.0076407664 0.04427419 0.040640492 -0.06388349 -0.045805443
0.083804995 0.08957089 -0.019841857 0.044305816 0.00558682 0.03870723 0.032097388 0.05207694
0.072424084 0.030292446 -0.057753135 -0.0062701427 0.055508953 0.06938833 0.05029388 0.04987004
-0.08578757 -0.036907885 -0.019252844 -0.011488005 -0.042538818 -0.055234253 0.019655908 -0.051690605
0.019563794 0.046048984 0.061995547 -0.03940902 0.08584389 -0.10695354 0.07993377 -0.077170216
0.029175695 0.07725237 -0.024913518 0.06963707 -0.012555944 -0.03239508 0.06487491 -0.0068967566
-0.06863639 0.046279144 0.017367471 -0.030989012 -0.014102057 -0.015383681 0.07342238 -0.06589708
-0.05649646 0.0028095588 -0.045734342 0.047466006 0.07733424 0.06862422 0.05708049 0.0064527392
0.050519455 0.005712043 0.04522419 -0.028795267 -0.017058756 0.0014926615 -0.041657835 -0.07776055
-0.0024445697 -0.03872488 0.07485441 0.08698779 -0.05377841 0.0484608 0.012760318 0.08293431
0.045349486 0.069977656 -0.05885579 -0.026034359 -0.09904226 -0.010926155 0.013399315 0.0778621
-0.06463091 0.020484418 -0.09795624 0.08233714 0.08847998 0.04309303 -0.056048006 0.052992407
-0.074209385 -0.035533268 -0.062363315 0.015625695 -0.053064164 -0.06334106 -0.034727722 0.02539418
-0.035510417 -0.039477024 -0.05185562 0.040506393 -0.06711042 0.018405518 0.041638922 -0.051883962
0.060303107 0.040084846 0.051350523 0.020513168 0.0693433 0.011505713 0.039813925 -0.023270125
-0.063503034 -0.0873425 0.07541389 0.08914564 0.050869595 -0.060537208 -0.044742934 0.098161586
-0.04539014 0.07174784 0.043519575 0.062077105 -0.036253706 -0.007996877 0.050932076 -0.04949373
0.05773704 0.005717012 -0.066840984 -0.040633053 0.08060693 -0.05564848 -0.040811576 -0.06518641
0.015057132 -0.0044273296 -0.015781872 0.059703674 -0.04263627 0.057838302 0.08827418 -0.02922889
0.0009794086 0.0016803244 -0.016502677 0.090399906 -0.0469065 -0.04483511 -0.013285751 0.08257726
0.049893957 0.06022156 0.06255199 -0.021695912 0.083394915 0.016034955 -0.027742982 0.009006747
-0.065588504 -0.036693282 -0.0559217 0.004119419 -0.06902908 -0.052430358 0.030495673 -0.031041415
0.06490795 -0.005162218 0.0045926375 -0.0768341 0.045741268 -0.07617631 -0.029280366 -0.04430616
-0.041185297 0.02569936 0.010132435 -0.08853896 -0.0062910276 -0.059616145 -0.027239647 0.03372933
0.089334734 -0.10797349 -0.05949246 -0.081399575 -0.030515153 0.010564245 0.061604723 -0.037999514
0.03655881 -0.04616915 -0.095303774 0.06607839 -0.064225756 0.08612144 0.089901686 -0.015840005
0.00080557156 0.04134024 -0.06689196 -0.042362493 -0.01201608 0.017139018 -0.0070992596 -0.1004017
0.026972689 -0.06461453 0.012388346 -0.07844488 0.08577737 0.057034444 0.08755704 0.01012265
-0.030594049 -0.02287797 0.054336973 -0.080593295 -0.05881144 0.05248039 -0.08861705 0.005412066
-0.04890157 -0.018668946 0.028930468 -0.06835866 -0.056219622 0.054221842 -0.045275453 -0.039239332
-0.038706936 -0.0026519974 0.04934312 -0.008931915 0.04292078 -0.104282856 -0.08028229 -0.015985593
-0.060115445 -0.0075363643 0.040844157 -0.0073667327 -0.0422183 -0.019177616 -0.0400669 -0.025495972
00000000: 9151 473d b9f3 393d 4206 af3d 655f fabb
00000010: da58 353d a576 263d 59d5 82bd 7d9e 3bbd
00000020: f4a1 ab3d f170 b73d 648b a2bc 047a 353d
00000030: a511 b73b 798b 1e3d 8d78 033d a14e 553d
00000040: 1453 943d dd27 f83c 8d8e 6cbd c575 cdbb
00000050: 5b5d 633d 781b 8e3d f500 4e3d 8744 4c3d
00000060: 65b1 afbd b92c 17bd 24b8 9dbc 2f38 3cbc
00000070: 2f3d 2ebd 503d 62bd 6d05 a13c 87b9 53bd
00000080: 4044 a03c dc9d 3c3d 0bef 7d3d 5a6b 21bd
00000090: ecce af3d 750a dbbd 51b4 a33d 6b0b 9ebd
000000a0: de01 ef3c 7e36 9e3d 6f17 ccbc e19d 8e3d
000000b0: 72b7 4dbc b4b0 04bd 23dd 843d 30fe e1bb
000000c0: 3c91 8cbd 338f 3d3d 3a46 8e3c abdc fdbc
000000d0: 500c 67bc d60b 7cbc 795e 963d 0cf5 86bd
000000e0: d568 67bd 9320 383b ef53 3bbd b76b 423d
000000f0: 6a61 9e3d db8a 8c3d 3bcd 693d 8071 d33b
00000100: 7ded 4e3d 172c bb3b 003d 393d 0de4 ebbc
00000110: cebe 8bbc 69a5 c33a 68a1 2abd ec40 9fbd
00000120: 1335 20bb fb9d 1ebd 454d 993d a826 b23d
00000130: c046 5cbd d57e 463d a710 513c 77d9 a93d
00000140: 62c0 393d 7250 8f3d c512 71bd 0246 d5bc
00000150: abd6 cabd 9e03 33bc cd88 5b3c 2a76 9f3d
00000160: 365d 84bd f0ce a73c 489d c8bd 60a0 a83d
00000170: fe34 b53d 5182 303d 9892 65bd 910e 593d
00000180: 17fb 97bd 558b 11bd ad70 7fbd 7501 803c
00000190: cf59 59bd f5b8 81bd a83e 0ebd 7507 d03c
000001a0: 5f73 11bd a9b2 21bd 8f66 54bd 08ea 253d
000001b0: 3071 89bd 2bc7 963c 938d 2a3d 4784 54bd
000001c0: 6400 773d 0230 243d ed54 523d 3b0b a83c
000001d0: dc03 8e3d 7582 3c3c ed13 233d fda0 bebc
000001e0: e10d 82bd a0e0 b2bd 9972 9a3d fd91 b63d
000001f0: a35c 503d ddf5 77bd 5e44 37bd f108 c93d
00000200: 03eb 39bd 88f0 923d 9541 323d 9044 7e3d
00000210: c47e 14bd 5505 03bc 279e 503d f0b9 4abd
00000220: ad7d 6c3d c655 bb3b ede3 88bd d86e 26bd
00000230: 3f15 a53d a9ef 63bd 0a2a 27bd 7480 85bd
00000240: 30b2 763c 2213 91bb fc48 81bc d78b 743d
00000250: 5fa3 2ebd dbe7 6c3d 18c9 b43d 6d71 efbc
00000260: 805f 803a 553e dc3a 9f30 87bc 9623 b93d
00000270: 0821 40bd 05a5 37bd 7bac 59bc 441e a93d
00000280: 9b5d 4c3d e2aa 763d 421b 803d a0bb b1bc
00000290: f4ca aa3d bd5b 833c 4045 e3bc 0991 133c
000002a0: 4453 86bd b24b 16bd 270e 65bd 31fc 863b
000002b0: 1e5f 8dbd 37c1 56bd 10d2 f93c 914a febc
000002c0: 76ee 843d d327 a9bb d67d 963b 325b 9dbd
000002d0: 325b 3b3d 5302 9cbd 61dd efbc 607a 35bd
000002e0: eab1 28bd 7787 d23c 8302 263c ea53 b5bd
000002f0: f724 cebb 0f30 74bd ae25 dfbc c427 0a3d
00000300: 21f5 b63d 3521 ddbd 5eae 73bd d2b4 a6bd
00000310: eafa f9bc a815 2d3c 3c55 7c3d 61a5 1bbd
00000320: b1be 153d dd1b 3dbd a02e c3bd 1b54 873d
00000330: cb88 83bd 7060 b03d 601e b83d e6c2 81bc
00000340: fe2c 533a 6254 293d a7fe 88bd 4b84 2dbd
00000350: 18df 44bc 2067 8c3c e8a0 e8bb 689f cdbd
00000360: d4f5 dc3c 9f54 84bd 7df8 4a3c b6a7 a0bd
00000370: 0cac af3d f39c 693d 1b51 b33d 79d9 253c
00000380: 5fa0 fabc 956a bbbc 7290 5e3d 190e a5bd
00000390: 44e4 70bd adf5 563d db7c b5bd b357 b13b
000003a0: 034d 48bd 9eef 98bc 97ff ec3c a0ff 8bbd
000003b0: 8c46 66bd b917 5e3d c172 39bd 6cb9 20bd
000003c0: 2a8b 1ebd 22cd 2dbb 031c 4a3d 2b57 12bc
000003d0: b3cd 2f3d 4092 d5bd 0b6b a4bd 38f4 82bc
000003e0: 9d3b 76bd 9bf3 f6bb 344c 273d a264 f1bb
000003f0: 19ed 2cbd 601a 9dbc 311d 24bd eedc d0bc

net.2.bias f4 [64]
0.00291408 -0.07253013 0.10264799 -0.009086233 -0.06365138 -0.0904649 -0.005936558 0.044868056
0.0057452945 -0.034682266 -0.009691498 0.004681393 0.056140125 -0.00955781 -0.033906106 -0.06640698
-0.03528211 0.04115978 -0.023604978 -0.06801317 0.043638077 -0.0470648 -0.028111959 0.012989936
0.05564435 0.08309415 0.052496642 0.044997532 -0.044265963 0.007823985 0.07486024 0.06724938
0.009602562 0.008626865 0.059486 -0.01871162 -0.050082415 0.042854536 0.01765344 -0.079534136
0.014470889 0.055612285 0.028187674 0.024495743 -0.10296521 -0.033434518 0.058403652 0.052492086
-0.085150346 -0.07903236 -0.018531024 -0.03468664 -0.0017692158 -0.07113432 -0.05994887 -0.0334817
0.05803678 0.07896744 -0.024472948 0.054871373 -0.026738342 -0.009469514 -0.09217117 -0.06305747
00000000: 26fa 3e3b ad8a 94bd 1c39 d23d 6cde 14bc
00000010: a85b 82bd a945 b9bd 7587 c2bb 91c7 373d
00000020: 0643 bc3b fe0e 0ebd 17c9 1ebc 5f66 993b
00000030: 30f3 653d 5c98 1cbc 21e1 0abd 6200 88bd
00000040: f983 10bd 2897 283d 3a5f c1bc 7d4a 8bbd
00000050: d7bd 323d 05c7 40bd 0d4b e6bc bed3 543c
00000060: 54eb 633d 442d aa3d b806 573d 554f 383d
00000070: 3a50 35bd 2c30 003c 5350 993d 0bba 893d
00000080: 1054 1d3c b257 0d3c 98a7 733d 1c49 99bc
00000090: 3823 4dbd 3d88 2f3d f29d 903c cbe2 a2bd
000000a0: 4f17 6d3c b5c9 633d d6e9 e63c 4cab c83c
000000b0: 6ddf d2bd a2f2 08bd ab38 6f3d f101 573d
000000c0: 4e63 aebd b8db a1bd 60ce 97bc 9413 0ebd
000000d0: 08e5 e7ba dfae 91bd f28c 75bd 1b24 09bd
000000e0: fab7 6d3d aeb9 a13d 7e7b c8bc cec0 603d
000000f0: 5e0a dbbc 0526 1bbc 3dc4 bcbd 4624 81bd

net.4.weight f4 [2, 64]
-0.0245642 -0.050814435 -0.11226737 0.036091983 0.008863543 0.14953026 -0.06701098 0.0069890576
0.092918254 0.023858469 -0.009447974 0.08243551 0.077150725 0.10776986 -0.07055336 -0.17307253
0.08246462 -0.0092478115 -0.007523264 -0.14077081 -0.023151744 0.0042453283 0.15374511 -0.086607575
-0.017362807 0.13484527 0.1633238 -0.19306211 -0.097186334 -0.11014901 -0.11898527 -0.10556685
-0.09920545 0.14401051 0.10951816 -0.103773996 0.09740368 -0.011758123 0.08713656 -0.008033026
-0.0010834049 0.15677097 0.010918019 0.13092642 -0.018081816 -0.013114293 -0.043285195 -0.088877544
-0.13054432 -0.05658765 -0.021451063 0.14796624 -0.04675143 -0.10317004 -0.040782116 -0.10456122
0.15864162 0.15102264 0.094424374 -0.046184488 0.108700685 -0.035474226 -0.059389174 0.12694559
-0.073341 0.02813799 -0.11419486 -0.09090877 0.056634855 -0.14689785 0.0768734 0.11508516
0.16770433 0.055825986 -0.13057686 0.12039386 0.06051983 0.103989035 0.0744866 -0.054235376
-0.057307255 0.04782764 0.06536635 0.06386196 -0.12123811 -0.11627281 -0.011849608 0.10541959
0.0008396731 0.14258511 -0.13058455 0.03126607 -0.023251776 -0.044020332 0.08377398 -0.094311945
-0.064266704 0.04172216 0.09999442 0.054612488 0.03083628 0.07027807 0.07243383 -0.038972817
-0.15913004 -0.101903394 -0.095747925 0.057606664 0.031668313 -0.12998436 -0.044521526 -0.050993778
0.09286964 0.011657713 0.07017706 0.034769353 -0.14452022 0.060544968 -0.09075385 -0.10460335
0.028578825 -0.011584632 0.05603779 -0.1174837 -0.07903571 0.043177757 0.06954208 0.11095386
00000000: dc3a c9bc cc22 50bd 6fec e5bd 30d5 133d
00000010: 6538 113c 761e 193e 0d3d 89bd 7704 e53b
00000020: ed4b be3d d672 c33c adcb 1abc f3d3 a83d
00000030: 3301 9e3d 72b6 dc3d 487e 90bd ed39 31be
00000040: 36e3 a83d 2284 17bc b685 f6bb 3926 10be
00000050: baa8 bdbc 651c 8b3b 5c6f 1d3e 505f b1bd
00000060: 723c 8ebc e114 0a3e 5b3e 273e 13b2 45be
00000070: a109 c7bd ce95 e1bd 8dae f3bd 6f33 d8bd
00000080: 3a2c cbbd 7e77 133e 0f4b e03d 7687 d4bd
00000090: 957b c73d 24a5 40bc a774 b23d f49c 03bc
000000a0: 0901 8eba 9288 203e 7ee1 323c 9311 063e
000000b0: 5120 94bc 55dd 56bc d14b 31bd 6e05 b6bd
000000c0: 69ad 05be 74c8 67bd 24ba afbc 7684 173e
000000d0: 6d7e 3fbd d04a d3bd 260b 27bd 3124 d6bd
000000e0: f372 223e aea5 1a3e 9161 c13d f22b 3dbd
000000f0: 779e de3d 6c4d 11bd 1042 73bd 06fe 013e
00000100: ce33 96bd a481 e63c ffde e9bd 612e babd
00000110: f3f9 673d 646c 16be cd6f 9d3d c5b1 eb3d
00000120: afba 2b3e caa9 643d f1b5 05be 0e91 f63d
00000130: a4e3 773d 34f8 d43d 6e8c 983d ea25 5ebd
00000140: 03bb 6abd eae6 433d cbde 853d 0fca 823d
00000150: b04b f8bd 7020 eebd dc24 42bc 3ae6 d73d
00000160: 821d 5c3a d501 123e f5b7 05be da10 003d
00000170: 827a bebc aa4e 34bd b191 ab3d 9f26 c1bd
00000180: 439e 83bd dbe4 2a3d e0c9 cc3d 58b1 5f3d
00000190: 5e9c fc3c f3ed 8f3d 3058 943d f6a1 1fbd
000001a0: fcf2 22be bab2 d0bd 7d17 c4bd f7f4 6b3d
000001b0: a2b6 013d 9f1a 05be 345c 36bd dade 50bd
000001c0: 7032 be3d feff 3e3c feb8 8f3d 4f6a 0e3d
000001d0: 1cfd 13be 00fe 773d 28dd b9bd 483a d6bd
000001e0: 241e ea3c 78cd 3dbc e287 653d 4b9b f0bd
000001f0: 79dd a1bd 29db 303d 146c 8e3d c73b e33d

net.4.bias f4 [2]
0.06258912 0.05705925
00000000: b92e 803d f6b6 693d

X_mean f4 [128]
-180.80214 117.14343 -2.0981858 26.037943 4.5304127 6.6031094 -0.8579604 3.0673788
-3.6885407 1.3427876 -3.6596198 0.18294972 -3.8543918 -0.8715161 -4.1125474 -0.42947719
-3.9532425 -0.70823866 -3.5913525 -0.9440423 62.330364 28.716291 20.722637 14.376946
12.061117 10.517595 9.624284 8.918923 8.749386 8.486593 8.284255 8.07022
7.918635 7.692777 7.592154 7.4426203 7.4253197 7.4323645 7.634899 7.8446174
-464.9279 3.4681244 -64.36762 -21.618166 -36.01138 -29.238209 -32.90627 -27.09275
-33.283356 -26.640764 -31.373695 -26.785841 -29.975798 -26.388948 -29.07417 -24.796907
-28.08644 -24.809006 -28.545969 -26.8197 -35.85936 192.29063 64.29658 71.253265
42.00499 39.74914 30.697588 32.484425 25.191137 30.25066 24.49713 27.750128
23.298029 25.887638 22.58777 25.827019 22.625938 25.784122 23.813236 27.028196
0.23973978 0.2194494 0.26663172 0.21650398 0.2624963 0.22544952 0.22763973 0.2690447
0.22508426 0.26763088 0.20826416 0.224877 0.11857197 0.100773506 0.122135885 0.10169458
0.118044145 0.10962059 0.102858566 0.12096643 0.10128595 0.1259903 0.10518751 0.11368159
0.034651063 0.038706377 0.045011684 0.03582121 0.046753574 0.035383865 0.039503403 0.045295294
0.038182694 0.04194924 0.028312163 0.02872588 0.56319183 0.5096845 0.59118724 0.5053702
0.57855 0.5386484 0.52084225 0.59077793 0.50885683 0.59638745 0.5058325 0.54192805
00000000: 59cd 34c3 7049 ea42 ad48 06c0 b54d d041
00000010: 24f9 9040 ac4c d340 4ba3 5bbf ef4f 4440
00000020: 0d11 6cc0 77e0 ab3f 3637 6ac0 2c57 3b3e
00000030: 5bae 76c0 ae1b 5fbf fd99 83c0 6fe4 dbbe
00000040: ed01 7dc0 214f 35bf b8d8 65c0 c2ac 71bf
00000050: 4b52 7942 f7ba e541 f6c7 a541 f907 6641
00000060: 56fa 4041 1248 2841 11fd 1941 e9b3 0e41
00000070: 7cfd 0b41 16c9 0741 4f8c 0441 9f1f 0141
00000080: 7565 fd40 3b2b f640 edf2 f240 f229 ee40
00000090: 389c ed40 eed5 ed40 1851 f440 1b07 fb40
000000a0: c576 e8c3 c0f5 5d40 39bc 80c2 01f2 acc1
000000b0: a70b 10c2 dae7 e9c1 05a0 03c2 f4bd d8c1
000000c0: 2822 05c2 4920 d5c1 54fd fac1 6749 d6c1
000000d0: 6fce efc1 911c d3c1 e697 e8c1 1160 c6c1
000000e0: 07b1 e0c1 d878 c6c1 255e e4c1 bf8e d6c1
000000f0: fc6f 0fc2 674a 4043 d997 8042 ac81 8e42
00000100: 1c05 2842 1fff 1e42 a994 f541 0df0 0142
00000110: 7387 c941 5a01 f241 1ffa c341 4300 de41
00000120: 5d62 ba41 e219 cf41 c1b3 b441 bc9d ce41
00000130: ec01 b541 e245 ce41 8281 be41 bf39 d841
00000140: 587e 753e 58b7 603e f483 883e 38b3 5d3e
00000150: ea65 863e 3ddc 663e 641a 693e 3ac0 893e
00000160: 7d7c 663e ea06 893e 3343 553e 2846 663e
00000170: dcd5 f23d 5762 ce3d 6122 fa3d 3f45 d03d
00000180: 21c1 f13d c380 e03d 83a7 d23d 3fbd f73d
00000190: 026f cf3d 9a03 013e 8d6c d73d e5d1 e83d
000001a0: 46ee 0d3d 948a 1e3d 2c5e 383d 43b9 123d
000001b0: ad80 3f3d acee 103d 52ce 213d 8f87 393d
000001c0: 7565 1c3d f7d2 2b3d e9ee e73c 8952 eb3c
000001d0: 572d 103f af7a 023f 0c58 173f f15f 013f
000001e0: da1b 143f dde4 093f eb55 053f 393d 173f
000001f0: 7144 023f d9ac 183f 3d7e 013f ccbb 0a3f

X_std f4 [128]
89.071144 37.187103 26.456867 16.165646 11.106162 11.747513 8.0088415 8.196791
7.7382956 7.0479894 5.8012753 6.613721 5.2491136 5.2038307 4.7836637 4.834337
4.400005 4.473796 4.089306 4.305345 25.348196 10.253545 7.189653 4.4860473
3.6837008 3.2839496 2.6194334 2.3980668 2.3406076 2.245551 2.1862824 2.1931767
2.1638849 2.0576494 2.0457408 1.9449168 1.9880415 2.0258389 2.174209 2.407193
119.51879 39.530796 28.684515 21.330648 16.246372 16.579475 11.892304 11.749988
11.99241 10.619172 9.856509 10.201079 8.765671 8.592791 7.999533 8.02934
7.3075213 7.4578776 7.987337 8.779046 71.92106 35.64507 32.111607 21.208078
16.057127 14.272409 12.624816 11.354435 10.66791 10.816276 10.007178 10.242947
9.834988 9.380876 9.583665 9.3715105 10.107565 9.30121 9.451238 9.87367
0.10981805 0.102416605 0.11045715 0.10325936 0.1112054 0.097633 0.095382065 0.10679588
0.10074605 0.11124072 0.1018723 0.101154946 0.058617767 0.048487052 0.05686997 0.051878408
0.055398177 0.054209992 0.04917721 0.05573098 0.048564322 0.059210535 0.052357543 0.05352524
0.06194852 0.06649299 0.07172135 0.06532566 0.07386004 0.062792204 0.06387939 0.07059434
0.06497822 0.069401555 0.058356572 0.055253956 0.18321006 0.16919814 0.18007693 0.17737362
0.17788927 0.17217866 0.1680481 0.1760874 0.16639595 0.18354821 0.17876971 0.17650305
00000000: 6d24 b242 98bf 1442 aaa7 d341 3e53 8141
00000010: d7b2 3141 d0f5 3b41 3724 0041 0e26 0341
00000020: 1ea0 f740 2189 e140 0ca4 b940 9aa3 d340
00000030: bdf8 a740 c885 a640 c613 9940 e4b2 9a40
00000040: d7cc 8c40 5629 8f40 98db 8240 63c5 8940
00000050: 1bc9 ca41 850e 2441 a311 e640 b38d 8f40
00000060: c1c1 6b40 3b2c 5240 cca4 2740 ed79 1940
00000070: 84cc 1540 1cb7 0f40 0dec 0b40 025d 0c40
00000080: 177d 0a40 87b0 0340 6bed 0240 09f3 f83f
00000090: 2578 fe3f 58a7 0140 3e26 0b40 730f 1a40
000000a0: 9f09 ef42 891f 1e42 e379 e541 2ba5 aa41
000000b0: 92f8 8141 c4a2 8441 e146 3e41 f3ff 3b41
000000c0: e9e0 3f41 21e8 2941 43b4 1d41 9f37 2341
000000d0: 3040 0c41 127c 0941 2dfc ff40 2d78 0041
000000e0: 37d7 e940 efa6 ee40 4498 ff40 f976 0c41
000000f0: 95d7 8f42 8d94 0e42 4972 0042 25aa a941
00000100: ff74 8041 ca5b 6441 3fff 4941 c4ab 3541
00000110: c2af 2a41 770f 2d41 671d 2041 1ce3 2341
00000120: 1c5c 1d41 1118 1641 b156 1941 b5f1 1541
00000130: 96b8 2141 c2d1 1441 4538 1741 8dfa 1d41
00000140: 49e8 e03d ccbf d13d 5c37 e23d a579 d33d
00000150: a8bf e33d cff3 c73d ac57 c33d ccb7 da3d
00000160: f253 ce3d 2dd2 e33d 6da2 d03d 532a cf3d
00000170: 2f19 703d 5c9a 463d 7cf0 683d 747e 543d
00000180: 33e9 623d 4c0b 5e3d 0b6e 493d 2b46 643d
00000190: 62eb 463d bf86 723d dd74 563d 483d 5b3d
000001a0: bbbd 7d3d 7a2d 883d a5e2 923d 76c9 853d
000001b0: ef43 973d 3399 803d 33d3 823d c493 903d
000001c0: 4d13 853d 6722 8e3d 4d07 6f3d f951 623d
000001d0: 6b9b 3b3e 4742 2d3e 1666 383e 6ea1 353e
000001e0: 9b28 363e 9a4f 303e cd14 2c3e 4150 343e
000001f0: b363 2a3e 10f4 3b3e 680f 373e 37bd 343e
