emotion_regressor.pt (torch, 104345 bytes, 8 tensors)

net.0.weight f4 [128, 128]
0	0xbbdc2a8d	-0.0067189396
1	0x3d1fd213	0.0390187
2	0x3e066773	0.131254
3	0xbb329fb3	-0.0027255833
4	0x3d9247e6	0.0714262
5	0xbdc84f2f	-0.09780728
6	0x3d4ec60b	0.050481837
7	0xbc9aafd8	-0.018882677
8	0xbd4f9645	-0.050680418
9	0xbd16965a	-0.03676448
10	0x3d183140	0.037156343
11	0xbdd81c32	-0.10552253
12	0xbdb5b5f2	-0.08872594
13	0xbd4a10ff	-0.049332615
14	0xbcd8feec	-0.026488744
15	0xbd5b1da9	-0.053495083
16	0xbd7b0451	-0.061283413
17	0xbc853610	-0.01626113
18	0xbd46a466	-0.048496626
19	0x3d2c2c00	0.04203415
20	0xbcb38443	-0.021913653
21	0x3d779fd0	0.060455143
22	0xbcca6d8c	-0.02471044
23	0xbd129a2b	-0.035791557
24	0x3d388052	0.04504425
25	0xbb160773	-0.0022892624
26	0xbc9ecdcd	-0.019385243
27	0xbd880669	-0.06641848
28	0x3d7bc040	0.06146264
29	0x3d2c9f4c	0.042144105
30	0x3d069ee5	0.032866377
31	0xbc1559d6	-0.009115657
32	0xbd6e30cd	-0.05815201
33	0x3cdaf5e4	0.026728578
34	0xbdc5da17	-0.09660738
35	0xbda304c0	-0.0795989
36	0xbd2d06b5	-0.042242724
37	0x3c1e5377	0.009663454
38	0xba0a6ba4	-0.0005280322
39	0x3d1eae56	0.03874048
40	0x3d5eb305	0.054369945
41	0x3da7dad7	0.08196037
42	0x3da1dadc	0.07903072
43	0x3d3e158e	0.046407275
44	0x3d32d06f	0.04365581
45	0x3bdb6bce	0.006696201
46	0x3d8218db	0.06352397
47	0xbb233b2b	-0.0024907093
48	0xbdaa9c20	-0.0833056
49	0x3d7d8ab0	0.06189984
50	0xbdbcb7d9	-0.09214754
51	0x3d9e61e8	0.07733518
52	0xbd17cb19	-0.037058923
53	0x3d500767	0.05078831
54	0xbc6b9977	-0.014379851
55	0xbdaac7b3	-0.08338871
56	0x3d8cf115	0.0688192
57	0x3d841d85	0.06450943
58	0x3d6553d6	0.055988155
59	0xbc01e64b	-0.007928441
60	0xbdc582cf	-0.096440904
61	0x3d011326	0.031512402
62	0x3dc1aac5	0.094564
63	0x3db3d4b5	0.08780805
64	0xbd3babc6	-0.045818113
65	0xbda2a5e8	-0.079418
66	0x3d398fbc	0.04530309
67	0xbd054c6e	-0.032543592
68	0xbdd125a0	-0.102122545
69	0xbd99d9a7	-0.07512217
70	0xbc0e88e9	-0.008699634
71	0x3c1aa7fc	0.009439465
72	0xbe10512e	-0.14093468
73	0x3c89b8f3	0.016811823
74	0xbcfb1dd2	-0.030653868
75	0x3d75a904	0.05997564
76	0x3d1e0792	0.03858144
77	0xbdb6aaf1	-0.08919323
78	0xbc79e728	-0.015252866
79	0x3d6a53ad	0.057208706
80	0xbd3dec41	-0.046367887
81	0xbce72d9c	-0.02821999
82	0x3c7f80c7	0.015594668
83	0x3bfe5bad	0.0077623934
84	0xbdd45fc1	-0.10369826
85	0xbd7549b9	-0.05988476
86	0x3d2ebaa0	0.04265845
87	0xbd50c112	-0.050965376
88	0xbcf76c1a	-0.030202914
89	0xbcdb8b1a	-0.026799727
90	0x3d94f14a	0.07272585
91	0xbd976eff	-0.07394218
92	0x3d9d2560	0.07673144
93	0x3d1e7792	0.03868825
94	0xbb44a856	-0.0030007563
95	0xbc67adfc	-0.014140602
96	0xbc4e62de	-0.012596814
97	0xbd5a4f7a	-0.05329845
98	0xbd9c2dba	-0.07625909
99	0xbca4bd0b	-0.020109674
100	0xbd1e9170	-0.03871292
101	0x3db69798	0.08915633
102	0x3d3e090a	0.04639534
103	0x3d023b54	0.03179486
104	0xbb76c211	-0.0037652294
105	0x3d2c465c	0.042059287
106	0x3b977fe7	0.0046234014
107	0xbd558f54	-0.05213864
108	0xbd398292	-0.045290537
109	0x3dad982e	0.084762916
110	0xbd5d184a	-0.053978242
111	0xbcc99223	-0.024605816
112	0xbc1568b1	-0.009119199
113	0x3b40e1e2	0.0029431512
114	0x3db415be	0.087932095
115	0xbcae9271	-0.021310063
116	0x3dcd280d	0.10017405
117	0xbccbc6c9	-0.024875062
118	0xbc0828db	-0.008310522
119	0x3d3939a4	0.045220986
120	0x3bb9a541	0.0056654518
121	0x3d5db3da	0.054126598
122	0xbd27a1ff	-0.040925976
123	0xbce9884d	-0.028507376
124	0xbc498063	-0.012298676
125	0x3de404ca	0.11133726
126	0xbd799b32	-0.06093902
127	0x3da2b257	0.07944172
128	0xbd915bab	-0.070975624
129	0x3d5224dc	0.051304683
130	0xbdc6fc6d	-0.09716115
131	0xbcbe730e	-0.023248222
132	0xbd59e238	-0.053194255
133	0xbbfa97a4	-0.0076474715
134	0xbdbdf8df	-0.09275984
135	0xbe04e96f	-0.12979673
136	0x3d90e40b	0.07074746
137	0xbdc252d8	-0.094884574
138	0xbcfad78e	-0.030620363
139	0x3d39027b	0.04516838
140	0xbba54109	-0.005043153
141	0xbcca0b3d	-0.024663562
142	0xbcdefbc1	-0.027219655
143	0xbd4386f5	-0.047736127
144	0xbda2c981	-0.0794859
145	0xbd4a797c	-0.049432263
146	0xbd0352bd	-0.032061327
147	0xbcd6c148	-0.02621521
148	0xbc46aaa5	-0.012125646
149	0x3dba8998	0.09108275
150	0x3d8f897e	0.070086464
151	0xbdc05562	-0.093912855
152	0x3d1fb46b	0.03899042
153	0xbd7fc667	-0.06244507
154	0x3c92bb2a	0.017911512
155	0xbd331e4e	-0.043730073
156	0xbd6602e8	-0.056155115
157	0xbd8a7a71	-0.06761635
158	0xbd8b3100	-0.067964554
159	0x3c863b57	0.016385717
160	0x3d952b00	0.07283592
161	0xbdabd410	-0.08390057
162	0x3cfd4dec	0.030920945
163	0x3d938a89	0.07204158
164	0xbcfa5b72	-0.030561183
165	0x3d9c9cc9	0.07647092
166	0xbd5dae4f	-0.05412131
167	0x3d5652d4	0.052325085
168	0x3cbbe516	0.022936385
169	0xbc9166f7	-0.017749293
170	0xbd6aa4d4	-0.0572861
171	0x3d8e87c1	0.06959487
172	0xbc9c4ae0	-0.019078672
173	0xbd5b9075	-0.05360456
174	0x3d803f83	0.06262114
175	0xbdb03a78	-0.08604902
176	0xbd1f989c	-0.0389639
177	0xbd2185a4	-0.03943409
178	0xbc2a734c	-0.0104034655
179	0xba8f89fe	-0.0010951159
180	0xbd43ce87	-0.04780438
181	0x3ca29324	0.019845553
182	0x3bb527c7	0.0055284235
183	0xbcd5f69b	-0.026118567
184	0x3d753b73	0.05987115
185	0xbce5097d	-0.027958626
186	0xbcd3e148	-0.025864258
187	0x3cea91d4	0.02863399
188	0x3d02c9ff	0.03193092
189	0x3d3ec0cd	0.046570588
190	0x3d6be5ac	0.05759208
191	0x3d4ba328	0.049716145
192	0x3cb563c5	0.0221423
193	0x3d282bff	0.041057583
194	0x3dd57f31	0.104246505
195	0xbd642293	-0.055697035
196	0x3d279db7	0.040921893
197	0xbd384387	-0.044986274
198	0x3d138f71	0.03602547
199	0x3d1ef16d	0.03880446
200	0x3c7c7292	0.015408175
201	0xbd9b6bc3	-0.07588913
202	0x3e019f84	0.12658507
203	0xbc23ca81	-0.009997011
204	0x3de3d78d	0.111250974
205	0xbd603c34	-0.054744914
206	0xbcb62f60	-0.022239387
207	0x3daf3912	0.08555807
208	0x3c2a059d	0.010377315
209	0x3d3d6a77	0.04624411
210	0xbcb03a0d	-0.021512056
211	0xbce65c52	-0.028120194
212	0xbacec938	-0.0015776521
213	0xbd300c0f	-0.04298025
214	0x3d3324e4	0.043736354
215	0x3d668245	0.05627658
216	0xbd2a2393	-0.041537832
217	0xbd9446ff	-0.07240104
218	0x3c12a424	0.008950267
219	0x3d1d2908	0.03836921
220	0x3c4b15ce	0.012395335
221	0x3d6d96a4	0.05800499
222	0xbd850438	-0.06494945
223	0x3ccf2c40	0.025289655
224	0xbc33b3dd	-0.010968176
225	0xbd719f66	-0.058989905
226	0x3da5157b	0.08060738
227	0xbc45d677	-0.012075058
228	0x3dc8fb99	0.098136134
229	0x3bb0db4f	0.0053972374
230	0xbc92b702	-0.01790953
231	0xbcc77eff	-0.024352549
232	0x3d017de1	0.031614188
233	0xbd302fdb	-0.04301439
234	0xbd7afb6c	-0.06127493
235	0xbd8526b6	-0.06501524
236	0x3d92a1ba	0.07159753
237	0xbd9a1652	-0.075237885
238	0xbc97bf22	-0.018523756
239	0xbdad585e	-0.0846412
240	0x3c1e9b3c	0.009680565
241	0xbdf657ad	-0.120284416
242	0x3d0a51f7	0.033769574
243	0xbd43a0e5	-0.047760863
244	0x3d89c7df	0.067275755
245	0x3df6582e	0.12028538
246	0xbd96d926	-0.073656365
247	0xbd3847bd	-0.04499029
248	0x3d7af088	0.061264545
249	0x3ccecec0	0.02524507
250	0xbd07a3f0	-0.033115327
251	0x3b0ff152	0.0021963906
252	0xbcf51fa0	-0.029922307
253	0xbced4664	-0.028964229
254	0xbd982351	-0.07428611
255	0xbd208431	-0.039188568

net.0.bias f4 [128]
0	0x3d4d094a	0.050057687
1	0xbdef6f3c	-0.11691138
2	0x3911d632	0.00013908072
3	0xbd529cae	-0.051418953
4	0x3db2e2a0	0.087346315
5	0x3d9a19da	0.07524462
6	0xbd957725	-0.07298116
7	0x3d0cab61	0.034343127
8	0xbc8fa497	-0.017534537
9	0x3d85bad0	0.06529772
10	0x3d555e44	0.05209185
11	0xbdc12b0d	-0.094320394
12	0x3daec0e8	0.08532888
13	0x3d963eaa	0.07336171
14	0x3d389eb0	0.04507321
15	0xbcf019aa	-0.029309113
16	0xbda69fe0	-0.081359625
17	0xbce5aaed	-0.028035605
18	0x3d84c09d	0.064820506
19	0xbd947b0d	-0.072500326
20	0xbd98d877	-0.074631624
21	0xbd9065ef	-0.07050692
22	0x3d27d023	0.04096998
23	0x3d5b1741	0.053488974
24	0xbd55e7dd	-0.052223075
25	0xbd8dc670	-0.069226146
26	0xbb59fba7	-0.0033261569
27	0xbd882266	-0.06647186
28	0x3d804c66	0.06264572
29	0x3cb71f6f	0.022353856
30	0x3cea5f71	0.028609963
31	0xbd94bba9	-0.07262356
32	0x3d496f48	0.04917839
33	0xbd693792	-0.05693776
34	0x3d1b8f2d	0.03797834
35	0xbc0abc8e	-0.0084678065
36	0xbd3659f8	-0.044519395
37	0x3c840581	0.016115906
38	0xbd8e3cb5	-0.06945173
39	0xbc09a5ef	-0.008401378
40	0xbdab8346	-0.08374648
41	0x3dbafb8a	0.091300085
42	0x3d088af6	0.03333565
43	0xbd78c504	-0.060734764
44	0x3c71bbc6	0.014754241
45	0x3cc1e35f	0.02366799
46	0x3b5ea650	0.0033973642
47	0xbd80a5eb	-0.06281646
48	0xbdbec802	-0.09315492
49	0xbdce4ba9	-0.10073025
50	0xbd5771f8	-0.052598923
51	0x3b07f960	0.0020748004
52	0xbd07b2d0	-0.033129513
53	0xbd1ca390	-0.038241923
54	0xbcd9fa27	-0.02660854
55	0xbd699e7f	-0.05703592
56	0x3d1921d0	0.03738576
57	0xbd2fbd24	-0.042904988
58	0xbda30875	-0.079605974
59	0xbca807b6	-0.02051149
60	0x3cfd3b2a	0.030912
61	0xbde4564f	-0.111492746
62	0x3da7d8ce	0.08195649
63	0x3c1e74f5	0.009671439
64	0xbdc31e52	-0.095272675
65	0x3dae29cb	0.08504065
66	0xbdba55e5	-0.09098414
67	0xbd91d57b	-0.07120796
68	0xbd29635b	-0.04135452
69	0x3ceb9fc8	0.028762713
70	0x3baf1904	0.0053435583
71	0xbd945029	-0.07241852
72	0x3b817d75	0.003951723
73	0xbdafa0eb	-0.085756145
74	0xbd3c2618	-0.045934767
75	0x3bf2a354	0.007404724
76	0x3cf4cc35	0.02988253
77	0x3d49b732	0.049246974
78	0x3c8435e1	0.016138973
79	0xbcb941f4	-0.022614457
80	0xbd3273f4	-0.043567613
81	0xbd7ae0ed	-0.061249662
82	0x3cc3865b	0.023867777
83	0x3d442116	0.047883116
84	0xbd1614d6	-0.036640964
85	0x3d986617	0.07441347
86	0xb8683898	-5.5365817e-05
87	0x3d27637a	0.040866353
88	0x3c6c5965	0.01442561
89	0xbd25e5c2	-0.040502317
90	0x3d3f1654	0.046652153
91	0x3cc0fc3f	0.02355778
92	0x3d98c94a	0.07460268
93	0x3dab4c18	0.08364123
94	0x3c994366	0.018708896
95	0x3b45b5b4	0.0030168118
96	0xbd6988bd	-0.05701517
97	0xbc9a5daf	-0.0188435
98	0xbdda8bcf	-0.106711976
99	0xbd45d7be	-0.04830145
100	0xba91e76a	-0.0011131589
101	0x3da4447e	0.08020876
102	0xbd0507b8	-0.032478064
103	0xbd5b3825	-0.05352034
104	0xbd94bdc4	-0.072627574
105	0x3c4cf7c2	0.012510242
106	0x3ce51902	0.027966026
107	0x3ba46caf	0.005017839
108	0x3c3547cd	0.011064482
109	0x3dab2e0a	0.08358391
110	0x3c0f4af8	0.008745901
111	0xbce4d942	-0.027935628
112	0xbb4389a0	-0.002983667
113	0xbd4cf293	-0.050036024
114	0x3d7f6b4b	0.062358182
115	0xbda93fcd	-0.08264122
116	0x3d1a8d20	0.037732244
117	0x3c1f8133	0.009735393
118	0xbd705e6b	-0.058683794
119	0xbca30cf0	-0.01990363
120	0xbd2fc6df	-0.042914268
121	0xbdd853ca	-0.105628565
122	0xbb0dd8b3	-0.0021644055
123	0x3dab7dbc	0.08373591
124	0xbdeb241f	-0.11481499
125	0x3d335f5c	0.043792114
126	0xbd331031	-0.043716613
127	0xbd29ed9b	-0.041486364

net.2.weight f4 [64, 128]
0	0xbd0d6a5d	-0.034525264
1	0x3d76c81f	0.060249444
2	0x3d175064	0.0369419
3	0xbd1dce08	-0.038526565
4	0x3dd0e60c	0.10200128
5	0x3d8c63a9	0.06854946
6	0xbc8248c3	-0.015903836
7	0x3b297616	0.0025857738
8	0x3d23818f	0.03991848
9	0xbcc8566f	-0.024455277
10	0x3d9c7b38	0.076406896
11	0xbc01898f	-0.007906332
12	0x3da8afc9	0.08236653
13	0xbce1f404	-0.027582176
14	0xbc57cba5	-0.013171111
15	0x3df7b6b4	0.12095395
16	0x3c2bf99a	0.010496521
17	0x3d0affd8	0.033935398
18	0x3d5260bf	0.051361796
19	0x3cd16f69	0.02556582
20	0xbd45be63	-0.04827727
21	0xbd0cb87b	-0.03435562
22	0x3d0d37fa	0.03447721
23	0xbcf55dea	-0.029952008
24	0x3d32d255	0.04365762
25	0xbcab8ba0	-0.020940602
26	0xbcf43cb1	-0.029814096
27	0xbda657e6	-0.08122234
28	0x3d89b1fb	0.067234
29	0xbc2782ea	-0.010224083
30	0xbd8d3082	-0.06894018
31	0x3ce1b69c	0.027552895
32	0xbc27bd4b	-0.010238002
33	0x3da379fb	0.0798225
34	0x3dd507f6	0.10401909
35	0x3d3e13c7	0.04640558
36	0xbdc31785	-0.0952597
37	0xbd0573a5	-0.03258099
38	0xbd863d8e	-0.065547094
39	0x3d3d64b3	0.046238612
40	0x3db8e39d	0.09027789
41	0xbd9d916f	-0.07693755
42	0xbc790de5	-0.015201067
43	0xbd7fe39c	-0.062472925
44	0x3d25c892	0.040474482
45	0xbb9cd51a	-0.004786146
46	0xbd75079e	-0.059821717
47	0x3b8bd22a	0.004266997
48	0x3d5e2ad1	0.05424005
49	0x3b7b56d7	0.003835132
50	0xbd722df8	-0.05912587
51	0xbddbdd5a	-0.10735579
52	0xbe1686cf	-0.14699863
53	0x3c33e6d7	0.0109803295
54	0x3e1ca030	0.15295482
55	0x3d5dd13c	0.05415462
56	0x3cce5c4f	0.0251905
57	0xbd89614c	-0.06708011
58	0xbd8013e2	-0.06253792
59	0xbb139d95	-0.0022524346
60	0xbdb75eb3	-0.08953609
61	0xbcc96194	-0.024582662
62	0xbe0ef45b	-0.13960402
63	0xbb5c090a	-0.0033574724
64	0x3da0fa73	0.078602694
65	0x3d383e17	0.04498109
66	0xbde8999a	-0.11357422
67	0xbdb71c73	-0.08940973
68	0x3d7e8a72	0.06214375
69	0x3d51cc0a	0.051219977
70	0xbce03892	-0.027370725
71	0xbddbd85f	-0.10734629
72	0x3e0dc7f4	0.13845807
73	0x3dcdc106	0.10046582
74	0xbd69db91	-0.05709416
75	0x3cf95f8d	0.03044107
76	0x3a9fa130	0.0012178775
77	0xbd70c25d	-0.05877911
78	0xbd6ca8a6	-0.057778023
79	0xbd64656b	-0.055760782
80	0xbdd05280	-0.101719856
81	0xbc8b5f92	-0.017013345
82	0xbc701fb0	-0.014655992
83	0xbd6e7270	-0.058214605
84	0xbbe345bd	-0.0069358037
85	0x3d978c97	0.07399862
86	0x3ce61d6c	0.028090201
87	0x3e083d06	0.13304529
88	0xbd52b3ec	-0.051441118
89	0xbd35246d	-0.04422419
90	0x3deae5db	0.11469623
91	0xbd86b363	-0.06577184
92	0xbe078d3c	-0.1323747
93	0xbc9a5acc	-0.018842123
94	0xbe13604c	-0.14392203
95	0xbe2d36b9	-0.16915406
96	0xbd88caf4	-0.06679335
97	0xba31c6ee	-0.0006781657
98	0x3dcf4623	0.101207994
99	0xbd02dcc5	-0.031948823
100	0xbca5210e	-0.020157363
101	0xbd60a5b4	-0.054845527
102	0x3d40749a	0.0469862
103	0x3ccf3910	0.025295764
104	0x3b1a2148	0.0023518372
105	0x3c9e4770	0.019321173
106	0x3dd1330b	0.10214814
107	0x3d041351	0.032244984
108	0xbd3eeb67	-0.046611216
109	0xbca50c0d	-0.020147348
110	0x3d065742	0.03279806
111	0x3db614f4	0.08890715
112	0x3be45346	0.006967935
113	0xbda2e5bf	-0.07953977
114	0xbd1d5108	-0.038407356
115	0xbda32e14	-0.07967773
116	0xbdb7af9b	-0.08969041
117	0xbcc3c587	-0.0238979
118	0x3d1cecce	0.038311772
119	0x3d21b618	0.0394803
120	0xbbba21b7	-0.0056802887
121	0x3dbfe531	0.09369887
122	0xbdadb7c7	-0.08482318
123	0x3dfe1d06	0.124078795
124	0xbdbfcb4a	-0.09364946
125	0xbdb926d2	-0.090406075
126	0x3da22891	0.07917894
127	0xbcd1152e	-0.025522795
128	0x3c7ef59e	0.015561489
129	0x3aa18efa	0.0012325936
130	0x3cbbacfe	0.022909638
131	0xbdbc097c	-0.091814965
132	0x3d851590	0.06498253
133	0xbd3217c2	-0.04347969
134	0xbccbebe7	-0.02489276
135	0x3d131ed1	0.03591806
136	0x3a86a77b	0.0010273302
137	0xbd2e778c	-0.042594478
138	0xbcc8982d	-0.024486626
139	0x3d2fb8fa	0.042901017
140	0x3d3806a8	0.044928223
141	0x3dc58e40	0.09646273
142	0x3b968ae2	0.004594193
143	0xbd4380fc	-0.04773043
144	0x3d5055bc	0.050863013
145	0x3d38b642	0.04509569
146	0xbdbeb599	-0.09311981
147	0xbd2fec83	-0.042950165
148	0x3d9802ec	0.07422432
149	0xbcb5226b	-0.022111138
150	0xbb3eddef	-0.0029123982
151	0x3d92f019	0.07174701
152	0x3ccdb11d	0.025108868
153	0x3dbb41d6	0.091434166
154	0xbd3fcf60	-0.046828628
155	0xbd0b0302	-0.033938415
156	0xbcb8a5a7	-0.022539927
157	0x3ceee621	0.029162468
158	0xbd6913e2	-0.056903727
159	0x3da9ab89	0.08284671
160	0xbd9f916e	-0.077914104
161	0x3dc69759	0.09696836
162	0xbd29087a	-0.04126785
163	0xbd9f1719	-0.077680774
164	0xbd94d2c1	-0.072667606
165	0x3db41706	0.08793454
166	0x3d2cc6b2	0.042181678
167	0xbc98bbfe	-0.01864433
168	0xbd852ca1	-0.06502653
169	0xbccccaab	-0.024998983
170	0x3ccb50f8	0.024818882
171	0xbd380d83	-0.04493476
172	0xbd177c7c	-0.036983952
173	0xbd78064d	-0.060552884
174	0x3d41dccd	0.047329713
175	0xbcbb0f5a	-0.022834469
176	0xbd0b87ec	-0.034065172
177	0x3cb2c88c	0.021824144
178	0xbcc593b9	-0.024118291
179	0xbd4aee72	-0.049543805
180	0x3d70e0bc	0.058808073
181	0x3cfe95e9	0.031077342
182	0xbd7e135e	-0.06203019
183	0x3de56c64	0.112023145
184	0x3d643a4e	0.055719666
185	0x3d822242	0.063541904
186	0xbc176b1f	-0.009241848
187	0x3d9231fa	0.071384385
188	0xbca47e71	-0.020079823
189	0xbd741240	-0.059587717
190	0xbd8cc0f9	-0.06872744
191	0x3da701a3	0.08154609
192	0x3c3e8292	0.01162781
193	0x3d89edb6	0.06734793
194	0x3d38aa9b	0.045084577
195	0x3d6509cd	0.05591755
196	0xbd84a022	-0.064758554
197	0x3de76b54	0.11299768
198	0xbd7cc369	-0.061709795
199	0xbda7652f	-0.08173596
200	0xbaeb92d2	-0.0017972833
201	0x3d001f7c	0.031280026
202	0x3d88b000	0.06674194
203	0x3d528f62	0.05140627
204	0xbdc40cf4	-0.09572783
205	0x3d42d41f	0.047565576
206	0xbda22b05	-0.079183616
207	0x3bc48007	0.0059967074
208	0x3d52b95a	0.051446296
209	0x3cb3910f	0.021919755
210	0xbd295720	-0.041342854
211	0x3dd6ff8b	0.1049796
212	0xbd27948e	-0.040913157
213	0xbd32adef	-0.043622907
214	0x3dae2cdd	0.08504651
215	0xbd910abd	-0.07082126
216	0x3cff2fc3	0.031150704
217	0x3db7abc0	0.089683056
218	0x3db29298	0.08719367
219	0xbb4d6d10	-0.0031345524
220	0x3d0a754b	0.033803266
221	0xbd94c8ba	-0.07264848
222	0xbd060f10	-0.03272921
223	0x3c81288e	0.015766408
224	0xb6ade500	-5.182461e-06
225	0x39a15f2a	0.00030779216
226	0x3d9bcde1	0.07607628
227	0x3d1f6829	0.038917694
228	0x3d97539c	0.07388994
229	0x3db85287	0.09000116
230	0xbd662166	-0.056184195
231	0x3ca5d7c0	0.02024448
232	0xbd088902	-0.033333786
233	0x3da1a5c0	0.078929424
234	0xbd92511a	-0.07144375
235	0xbd1d92cf	-0.038470086
236	0x3d4ceeda	0.050032474
237	0x3c2af30b	0.0104339225
238	0xbccb8311	-0.02484277
239	0xbc07a4fa	-0.00827908
240	0xbcff2cba	-0.031149257
241	0xbd9cb115	-0.07650963
242	0xbd2a5d83	-0.041593086
243	0x3de4b1e3	0.11166742
244	0x3d9e5f12	0.07732977
245	0x3d98af17	0.07455271
246	0xbce282ab	-0.027650198
247	0x3da68db4	0.081324965
248	0xbd59e879	-0.05320022
249	0x3d0507ad	0.032478023
250	0x3d8254d2	0.063638344
251	0xbd878e9b	-0.06618997
252	0xbd66c549	-0.05634049
253	0x3d0adb9b	0.03390084
254	0x3ca7c544	0.020479806
255	0xbda189c7	-0.07887607

net.2.bias f4 [64]
0	0xbda6ae98	-0.0813877
1	0xbcfafb1a	-0.030637313
2	0x3d04bf80	0.03240919
3	0x3c85e3c7	0.016343964
4	0xbcb8c13e	-0.022553083
5	0x3d3c67d5	0.04599746
6	0x3ccbe38c	0.024888776
7	0x3ce014a0	0.027353585
8	0x3c9f21b1	0.019425245
9	0x3c2fc668	0.010728456
10	0x3b1fe74c	0.0024399338
11	0xbbabda62	-0.005244539
12	0xbd7b0c5f	-0.061291095
13	0x3c7cd765	0.015432213
14	0x3d0fd4ac	0.03511493
15	0x3d99fba0	0.07518697
16	0x3cf6daeb	0.030133685
17	0xbcda31dd	-0.026635105
18	0x3c04b7b3	0.008100438
19	0xbd85b8f0	-0.06529415
20	0x3d8df009	0.06930549
21	0xbc9dc9a5	-0.01926119
22	0x3cf4b123	0.029869622
23	0xbdaf4e59	-0.085598655
24	0x3da32dc9	0.07967717
25	0x3da89909	0.08232314
26	0xbda26c37	-0.079307966
27	0x3c1faca1	0.009745748
28	0x3d9bcd8d	0.07607565
29	0xbd5e3bec	-0.054256365
30	0xbccebd89	-0.025236862
31	0xbd97bafc	-0.07408711
32	0xbd9f47ca	-0.077773646
33	0xbcfde344	-0.030992158
34	0xbd46dc3f	-0.048549887
35	0xbdb21bb6	-0.08696692
36	0xbd4d1b1e	-0.05007469
37	0x3d9c1d7f	0.076228134
38	0x3da3f1e5	0.08005122
39	0xbd22c101	-0.039734844
40	0x3c1a1420	0.009404212
41	0x3cd42791	0.025897773
42	0x3c8b9748	0.01703991
43	0x3da20d38	0.079126775
44	0x3da44e62	0.08022763
45	0xbc7ed6ce	-0.015554143
46	0x3ca6907c	0.020332567
47	0xbce3a4f2	-0.027788613
48	0x3d91c5bc	0.07117793
49	0xbccf7f91	-0.025329383
50	0x3d5d5255	0.054033596
51	0x3d935d8d	0.07195578
52	0xbdb0c1f0	-0.08630741
53	0xbdb95b4a	-0.09050615
54	0x3cd1aeea	0.0255961
55	0xbd8e7f0f	-0.06957828
56	0xbcecf4be	-0.028925296
57	0xbd758a1e	-0.059946172
58	0xbc7d6bc5	-0.015467589
59	0x3d339f11	0.04385287
60	0x3dbd3c0b	0.09239968
61	0x3d614d4d	0.05500536
62	0x3db9cd06	0.09072308
63	0xbc9bdf83	-0.019027477

net.4.weight f4 [2, 64]
0	0xbe06e102	-0.13171771
1	0x394ad042	0.00019341803
2	0x3c3b8f76	0.011447778
3	0x3dd8e8e9	0.10591299
4	0xbdad4b9a	-0.084616855
5	0xbd67de52	-0.056608506
6	0xbd9f323a	-0.07773252
7	0xbd86d642	-0.06583835
8	0xbd01c621	-0.03168309
9	0x3d85f711	0.06541265
10	0x3dc79f27	0.09747153
11	0xbc776ab6	-0.015101125
12	0xbe3989ea	-0.18119016
13	0x3cc479a4	0.023983784
14	0xbe08c2bb	-0.13355534
15	0xbd9a33d9	-0.075294204
16	0x3d054f39	0.032546256
17	0xbb652052	-0.0034961891
18	0xbcdb1fcd	-0.026748562
19	0x3e0c0ab5	0.1367596
20	0x3c58493d	0.013201055
21	0x3dd15c4f	0.102226846
22	0xbd8879e0	-0.06663871
23	0xbdd7ae8c	-0.10531339
24	0x3d532251	0.0515464
25	0x3d9c089c	0.076188296
26	0x3d7e954c	0.0621541
27	0x3dc6d855	0.09709231
28	0x3e37a2b8	0.17933166
29	0xbcd347f6	-0.02579115
30	0x3c091679	0.008367174
31	0x3e2bab24	0.16764504
32	0x3dbec6cf	0.093152635
33	0xbe297806	-0.16549692
34	0x3e2d55d3	0.1692727
35	0xbd8c63a7	-0.06854945
36	0x3dafa096	0.08575551
37	0x3d9589f7	0.07301705
38	0xbc2e0800	-0.010622025
39	0xbd290b20	-0.041270375
40	0x3d8d3a8f	0.06895935
41	0x3dd6c1c5	0.10486177
42	0xbdbf71bf	-0.09347867
43	0xbda2e3ab	-0.079535805
44	0x3d256047	0.04037502
45	0xbdec413d	-0.11535881
46	0x3db73ae3	0.089467786
47	0x3db63451	0.08896697
48	0x3c9ed388	0.019387975
49	0x3d8b5dd7	0.06805008
50	0x3d9936a4	0.07481125
51	0x3cddc6a9	0.027072268
52	0xbdee4bea	-0.11635573
53	0xbc5d6a3c	-0.013514098
54	0x3e040f4d	0.12896462
55	0xbbb1a614	-0.0054214094
56	0xbdbc9077	-0.09207242
57	0xbda94773	-0.08265581
58	0xbe0ae0b4	-0.1356228
59	0x3dec7196	0.11545102
60	0x3db827dc	0.089919776
61	0xbd1ce2b9	-0.038302157
62	0x3dfde44a	0.12397058
63	0x3dc4ede1	0.09615684
64	0xbca380a3	-0.0199588
65	0xbe0b02ba	-0.13575259
66	0xbd358e46	-0.044325136
67	0x3d1897c7	0.03725412
68	0xbd158332	-0.03650207
69	0xbd70c75a	-0.058783866
70	0xbce56dd4	-0.028006472
71	0xbb8ed1d4	-0.0043585096
72	0xbb9196d3	-0.0044430285
73	0xbe095b9e	-0.13413855
74	0x3dfabf87	0.12243562
75	0x3e4aa150	0.19788098
76	0x3d98b6fc	0.074567765
77	0x3dead02f	0.11465489
78	0xbbdc3b2b	-0.0067209206
79	0x3caeb483	0.02132631
80	0x3b14499a	0.0022626878
81	0xbd561545	-0.052266378
82	0xbdd46cb2	-0.103722945
83	0x3c2511d9	0.010075056
84	0xbd38d2d4	-0.045122936
85	0xbdc23c55	-0.09484164
86	0x3e1c27a3	0.15249495
87	0x3e0b936e	0.13630459
88	0xbd288b9e	-0.041148774
89	0x3d1b5689	0.037924323
90	0x3c99cc16	0.018774074
91	0x3d3d6915	0.046242792
92	0x3e15d0f4	0.1463049
93	0xbdc21c8f	-0.09478103
94	0x3d44ef4c	0.048079774
95	0xbd5429bb	-0.05179761
96	0x3cf9734f	0.030450491
97	0x3d15361a	0.03642855
98	0xbc54f826	-0.012998616
99	0xbdbb7806	-0.09153752
100	0xbd109588	-0.035298854
101	0xbd3cb0dc	-0.046067104
102	0xbdac0c88	-0.08400828
103	0xbd8f5e6e	-0.07000433
104	0xbdaa332e	-0.08310543
105	0x3dc25e70	0.09490669
106	0xbd6fb1ca	-0.058519162
107	0x3da1cc42	0.07900287
108	0x3df148bf	0.11781453
109	0x3c86ffaa	0.016479332
110	0xbd3a2e36	-0.045454226
111	0x3ca76fd1	0.02043906
112	0xbd061b81	-0.032741074
113	0x3dce3aaa	0.10069783
114	0x3dcacd8c	0.09902486
115	0xbccbc3ea	-0.024873693
116	0x3c89a357	0.01680152
117	0x3dbd5089	0.092438765
118	0x3d54bdc9	0.051938806
119	0x399dd459	0.00030103585
120	0x3dd2ad52	0.102869645
121	0x3d948c94	0.07253376
122	0xbd639c8e	-0.055569224
123	0xbdfba887	-0.122880034
124	0x3e0edf15	0.13952287
125	0xbdfcaeca	-0.12338026
126	0xbdd5e7a2	-0.10444571
127	0x3df994e2	0.121866

net.4.bias f4 [2]
0	0xbc591761	-0.013250203
1	0x3cde0d01	0.02710581

X_mean f4 [128]
0	0xc334cd59	-180.80214
1	0x42ea4970	117.14343
2	0xc00648ad	-2.0981858
3	0x41d04db5	26.037943
4	0x4090f924	4.5304127
5	0x40d34cac	6.6031094
6	0xbf5ba34b	-0.8579604
7	0x40444fef	3.0673788
8	0xc06c110d	-3.6885407
9	0x3fabe077	1.3427876
10	0xc06a3736	-3.6596198
11	0x3e3b572c	0.18294972
12	0xc076ae5b	-3.8543918
13	0xbf5f1bae	-0.8715161
14	0xc08399fd	-4.1125474
15	0xbedbe46f	-0.42947719
16	0xc07d01ed	-3.9532425
17	0xbf354f21	-0.70823866
18	0xc065d8b8	-3.5913525
19	0xbf71acc2	-0.9440423
20	0x4279524b	62.330364
21	0x41e5baf7	28.716291
22	0x41a5c7f6	20.722637
23	0x416607f9	14.376946
24	0x4140fa56	12.061117
25	0x41284812	10.517595
26	0x4119fd11	9.624284
27	0x410eb3e9	8.918923
28	0x410bfd7c	8.749386
29	0x4107c916	8.486593
30	0x41048c4f	8.284255
31	0x41011f9f	8.07022
32	0x40fd6575	7.918635
33	0x40f62b3b	7.692777
34	0x40f2f2ed	7.592154
35	0x40ee29f2	7.4426203
36	0x40ed9c38	7.4253197
37	0x40edd5ee	7.4323645
38	0x40f45118	7.634899
39	0x40fb071b	7.8446174
40	0xc3e876c5	-464.9279
41	0x405df5c0	3.4681244
42	0xc280bc39	-64.36762
43	0xc1acf201	-21.618166
44	0xc2100ba7	-36.01138
45	0xc1e9e7da	-29.238209
46	0xc203a005	-32.90627
47	0xc1d8bdf4	-27.09275
48	0xc2052228	-33.283356
49	0xc1d52049	-26.640764
50	0xc1fafd54	-31.373695
51	0xc1d64967	-26.785841
52	0xc1efce6f	-29.975798
53	0xc1d31c91	-26.388948
54	0xc1e897e6	-29.07417
55	0xc1c66011	-24.796907
56	0xc1e0b107	-28.08644
57	0xc1c678d8	-24.809006
58	0xc1e45e25	-28.545969
59	0xc1d68ebf	-26.8197
60	0xc20f6ffc	-35.85936
61	0x43404a67	192.29063
62	0x428097d9	64.29658
63	0x428e81ac	71.253265
64	0x4228051c	42.00499
65	0x421eff1f	39.74914
66	0x41f594a9	30.697588
67	0x4201f00d	32.484425
68	0x41c98773	25.191137
69	0x41f2015a	30.25066
70	0x41c3fa1f	24.49713
71	0x41de0043	27.750128
72	0x41ba625d	23.298029
73	0x41cf19e2	25.887638
74	0x41b4b3c1	22.58777
75	0x41ce9dbc	25.827019
76	0x41b501ec	22.625938
77	0x41ce45e2	25.784122
78	0x41be8182	23.813236
79	0x41d839bf	27.028196
80	0x3e757e58	0.23973978
81	0x3e60b758	0.2194494
82	0x3e8883f4	0.26663172
83	0x3e5db338	0.21650398
84	0x3e8665ea	0.2624963
85	0x3e66dc3d	0.22544952
86	0x3e691a64	0.22763973
87	0x3e89c03a	0.2690447
88	0x3e667c7d	0.22508426
89	0x3e8906ea	0.26763088
90	0x3e554333	0.20826416
91	0x3e664628	0.224877
92	0x3df2d5dc	0.11857197
93	0x3dce6257	0.100773506
94	0x3dfa2261	0.122135885
95	0x3dd0453f	0.10169458
96	0x3df1c121	0.118044145
97	0x3de080c3	0.10962059
98	0x3dd2a783	0.102858566
99	0x3df7bd3f	0.12096643
100	0x3dcf6f02	0.10128595
101	0x3e01039a	0.1259903
102	0x3dd76c8d	0.10518751
103	0x3de8d1e5	0.11368159
104	0x3d0dee46	0.034651063
105	0x3d1e8a94	0.038706377
106	0x3d385e2c	0.045011684
107	0x3d12b943	0.03582121
108	0x3d3f80ad	0.046753574
109	0x3d10eeac	0.035383865
110	0x3d21ce52	0.039503403
111	0x3d39878f	0.045295294
112	0x3d1c6575	0.038182694
113	0x3d2bd2f7	0.04194924
114	0x3ce7eee9	0.028312163
115	0x3ceb5289	0.02872588
116	0x3f102d57	0.56319183
117	0x3f027aaf	0.5096845
118	0x3f17580c	0.59118724
119	0x3f015ff1	0.5053702
120	0x3f141bda	0.57855
121	0x3f09e4dd	0.5386484
122	0x3f0555eb	0.52084225
123	0x3f173d39	0.59077793
124	0x3f024471	0.50885683
125	0x3f18acd9	0.59638745
126	0x3f017e3d	0.5058325
127	0x3f0abbcc	0.54192805

X_std f4 [128]
0	0x42b2246d	89.071144
1	0x4214bf98	37.187103
2	0x41d3a7aa	26.456867
3	0x4181533e	16.165646
4	0x4131b2d7	11.106162
5	0x413bf5d0	11.747513
6	0x41002437	8.0088415
7	0x4103260e	8.196791
8	0x40f7a01e	7.7382956
9	0x40e18921	7.0479894
10	0x40b9a40c	5.8012753
11	0x40d3a39a	6.613721
12	0x40a7f8bd	5.2491136
13	0x40a685c8	5.2038307
14	0x409913c6	4.7836637
15	0x409ab2e4	4.834337
16	0x408cccd7	4.400005
17	0x408f2956	4.473796
18	0x4082db98	4.089306
19	0x4089c563	4.305345
20	0x41cac91b	25.348196
21	0x41240e85	10.253545
22	0x40e611a3	7.189653
23	0x408f8db3	4.4860473
24	0x406bc1c1	3.6837008
25	0x40522c3b	3.2839496
26	0x4027a4cc	2.6194334
27	0x401979ed	2.3980668
28	0x4015cc84	2.3406076
29	0x400fb71c	2.245551
30	0x400bec0d	2.1862824
31	0x400c5d02	2.1931767
32	0x400a7d17	2.1638849
33	0x4003b087	2.0576494
34	0x4002ed6b	2.0457408
35	0x3ff8f309	1.9449168
36	0x3ffe7825	1.9880415
37	0x4001a758	2.0258389
38	0x400b263e	2.174209
39	0x401a0f73	2.407193
40	0x42ef099f	119.51879
41	0x421e1f89	39.530796
42	0x41e579e3	28.684515
43	0x41aaa52b	21.330648
44	0x4181f892	16.246372
45	0x4184a2c4	16.579475
46	0x413e46e1	11.892304
47	0x413bfff3	11.749988
48	0x413fe0e9	11.99241
49	0x4129e821	10.619172
50	0x411db443	9.856509
51	0x4123379f	10.201079
52	0x410c4030	8.765671
53	0x41097c12	8.592791
54	0x40fffc2d	7.999533
55	0x4100782d	8.02934
56	0x40e9d737	7.3075213
57	0x40eea6ef	7.4578776
58	0x40ff9844	7.987337
59	0x410c76f9	8.779046
60	0x428fd795	71.92106
61	0x420e948d	35.64507
62	0x42007249	32.111607
63	0x41a9aa25	21.208078
64	0x418074ff	16.057127
65	0x41645bca	14.272409
66	0x4149ff3f	12.624816
67	0x4135abc4	11.354435
68	0x412aafc2	10.66791
69	0x412d0f77	10.816276
70	0x41201d67	10.007178
71	0x4123e31c	10.242947
72	0x411d5c1c	9.834988
73	0x41161811	9.380876
74	0x411956b1	9.583665
75	0x4115f1b5	9.3715105
76	0x4121b896	10.107565
77	0x4114d1c2	9.30121
78	0x41173845	9.451238
79	0x411dfa8d	9.87367
80	0x3de0e849	0.10981805
81	0x3dd1bfcc	0.102416605
82	0x3de2375c	0.11045715
83	0x3dd379a5	0.10325936
84	0x3de3bfa8	0.1112054
85	0x3dc7f3cf	0.097633
86	0x3dc357ac	0.095382065
87	0x3ddab7cc	0.10679588
88	0x3dce53f2	0.10074605
89	0x3de3d22d	0.11124072
90	0x3dd0a26d	0.1018723
91	0x3dcf2a53	0.101154946
92	0x3d70192f	0.058617767
93	0x3d469a5c	0.048487052
94	0x3d68f07c	0.05686997
95	0x3d547e74	0.051878408
96	0x3d62e933	0.055398177
97	0x3d5e0b4c	0.054209992
98	0x3d496e0b	0.04917721
99	0x3d64462b	0.05573098
100	0x3d46eb62	0.048564322
101	0x3d7286bf	0.059210535
102	0x3d5674dd	0.052357543
103	0x3d5b3d48	0.05352524
104	0x3d7dbdbb	0.06194852
105	0x3d882d7a	0.06649299
106	0x3d92e2a5	0.07172135
107	0x3d85c976	0.06532566
108	0x3d9743ef	0.07386004
109	0x3d809933	0.062792204
110	0x3d82d333	0.06387939
111	0x3d9093c4	0.07059434
112	0x3d85134d	0.06497822
113	0x3d8e2267	0.069401555
114	0x3d6f074d	0.058356572
115	0x3d6251f9	0.055253956
116	0x3e3b9b6b	0.18321006
117	0x3e2d4247	0.16919814
118	0x3e386616	0.18007693
119	0x3e35a16e	0.17737362
120	0x3e36289b	0.17788927
121	0x3e304f9a	0.17217866
122	0x3e2c14cd	0.1680481
123	0x3e345041	0.1760874
124	0x3e2a63b3	0.16639595
125	0x3e3bf410	0.18354821
126	0x3e370f68	0.17876971
127	0x3e34bd37	0.17650305
