emotion_regressor.pt (torch, 104345 bytes, 8 tensors)

net.0.weight f4 [128, 128]
000000 c8 b6 d2 bc 50 56 f0 bc c9 23 26 bd 89 e9 2b bd
       -0.025721923 -0.029338032 -0.04056147 -0.041970763
000010 99 4a db 3b 09 26 10 3d 9e c7 33 3b 56 9d b7 bd
       0.0066922423 0.035192523 0.0027432214 -0.08965556
000020 cb d9 a9 3d 36 ce 6a 3b 07 7f 95 3d da 65 49 3c
       0.08293494 0.0035828478 0.07299619 0.01229235
000030 20 2b a3 bd 4e 48 89 bd 6e 09 ff bd 38 dc be 3c
       -0.0796721 -0.06703244 -0.124529704 0.023298368
000040 fa 27 7e 3d e4 b9 28 bc 75 70 2c bd 05 f6 5f 3c
       0.062049843 -0.010298226 -0.042099435 0.0136694955
000050 16 c8 a0 3d 0d fc 19 bd e0 8a 3b bc ab 18 28 3c
       0.07850663 -0.03759389 -0.011446685 0.010259788
000060 93 82 af bd de e1 55 3d 71 ff e4 3c 0e 46 43 3c
       -0.08569827 0.052217357 0.027953835 0.011918558
000070 2e 76 9d 3c 69 03 a0 bc 18 f0 57 bd c7 d0 5a 3d
       0.019221392 -0.019532876 -0.052719206 0.05342176
000080 36 54 e9 3b ad e3 3d bc f4 03 1e bd 5f 12 ba bd
       0.0071206344 -0.011589927 -0.03857799 -0.09085535
000090 bd eb 83 bd 0c d1 8b 3d 88 bb 03 3d b1 82 c0 3d
       -0.06441448 0.06826982 0.032161266 0.093999274
0000a0 95 5d 60 3c da cc f7 bd d0 a1 c2 bd 0e 94 4b 3d
       0.013694187 -0.12099619 -0.095035195 0.049701743
0000b0 77 b3 28 bd e4 56 d3 bc 57 71 82 bc 86 5f 45 bd
       -0.041186776 -0.025798269 -0.015923185 -0.0481868
0000c0 99 15 08 3e 35 0d 6c 3d 7e 79 ac 3c f7 c3 84 bd
       0.13289489 0.057629783 0.021054026 -0.0648269
0000d0 53 64 b9 3d 75 cc 3f bd a7 49 a2 bd d8 5a b4 3d
       0.090523385 -0.046825845 -0.07924204 0.088063896
0000e0 3c a6 bb 3d 07 f7 27 3d 7b 73 75 3c 17 47 9a 3d
       0.09162566 0.041007068 0.014981146 0.075330906
0000f0 12 06 30 3d e1 5d 87 3d ea 71 d1 bd ca 87 33 3c
       0.04297454 0.06609703 -0.102268055 0.010957668
000100 01 2b cc bb 08 72 14 3c 41 5f 7d 3d 48 88 ca bd
       -0.0062307124 0.00906039 0.06185842 -0.09889275
000110 28 f6 0a 3e 5f 0d d3 3c 7b 2b a0 3d 75 80 ea bc
       0.13570464 0.025763212 0.07820793 -0.028625706
000120 e5 b6 8f 3d 21 c4 0d 3d 87 a4 85 3d 97 dc 8c 3b
       0.07017306 0.03461087 0.06525522 0.0042987573
000130 6b b9 dc bc 29 8c 3b bd 19 fe 00 be a3 ae 6d bd
       -0.026943883 -0.045787964 -0.1259693 -0.058027875
000140 7d ff 46 bd f1 49 11 3e bc 5c 2c bd 75 e1 c4 bd
       -0.048583496 0.14188363 -0.042080626 -0.09613315
000150 ca 99 d9 3d 70 f3 95 bd c6 bc a0 bd c0 89 3c bd
       0.10625036 -0.07321823 -0.07848506 -0.046029806
000160 aa c6 18 bd 86 ec 5e 3c 13 fd b4 3d 49 c9 17 bc
       -0.037298836 0.013606196 0.088373326 -0.009264299
000170 76 db 86 bc 32 f8 bc 3b a6 ee 3b bc 9b 14 8c bd
       -0.016462069 0.005766892 -0.011470472 -0.06839868
000180 06 0e f1 bc cb 24 6f bd dc 29 b3 3d ce ba 1c 3c
       -0.029425632 -0.058384698 0.087482184 0.009566022
000190 0d 5b 40 bc e5 ef 9a bd 08 7f d7 bd 2a 06 88 bd
       -0.011740458 -0.075652875 -0.10522276 -0.06641801
0001a0 82 1a 8d 3d 0f fe 3d 3d af bc 23 3d 25 bf ab 3d
       0.068898216 0.046384867 0.039974865 0.08386067
0001b0 36 f1 8d bc 90 ed b6 ba f5 d5 72 bd a1 50 d1 bd
       -0.017326932 -0.0013956297 -0.059286077 -0.10220457
0001c0 31 bf f7 bd ec c4 83 bd 52 d7 a3 bc ae ab 61 3d
       -0.12097014 -0.06434044 -0.020000134 0.055095367
0001d0 22 be 58 3d da 1c 28 3d 39 5d f5 bc 0f 73 a9 bd
       0.0529157 0.04104314 -0.029951679 -0.08273899
0001e0 25 fb 11 bd 66 2a c4 3c 05 4b 5a bd b7 52 bb bd
       -0.0356399 0.023945998 -0.0532942 -0.09146636
0001f0 a9 3f 31 bd b3 e3 45 bd 28 d8 0b bb f4 69 6a 3d
       -0.0432736 -0.048312854 -0.0021338556 0.05722995
000200 d8 03 4f bd 44 79 58 38 3b ad 42 3d d9 60 b0 bd
       -0.050540775 5.161135e-05 0.047528487 -0.08612222
000210 cc 5e 95 bd 4d b6 29 3d cf 95 c6 3c b8 7f 3b bd
       -0.07293472 0.04143362 0.024241356 -0.0457761
000220 fe fb 82 bd dc dc 6b bb ce 30 e4 bc 6a b2 98 bd
       -0.0639572 -0.0035989797 -0.027855303 -0.07455905
000230 4d 2b 29 3d 0f 51 15 3c f3 50 a6 bd 09 fc 9e bc
       0.04130106 0.009113564 -0.081209086 -0.01940729
000240 dd 1c 96 3d 88 19 38 bd 86 ed 61 bc ae 62 74 3d
       0.07329724 -0.044946223 -0.01378954 0.05966442
000250 7e f7 e1 bc 80 ac 8c 3d 22 ad 62 bd 7a 31 ae 3d
       -0.027583834 0.06868839 -0.055340894 0.08505531
000260 3c c0 c1 3d 84 67 c9 3d 05 d6 bb 3d 9b 36 09 bd
       0.09460494 0.09834197 0.0917168 -0.03349934
000270 45 5e 93 bc d0 bc 14 bd b6 d2 9b bd 39 44 a2 bd
       -0.017989287 -0.036312878 -0.07608549 -0.07923169
000280 73 83 a0 bd 88 46 46 3b 0c c3 95 3c a2 cf 43 bc
       -0.07837572 0.0030254442 0.018281482 -0.011951359
000290 8a 16 4e bd 40 9c 80 bd 19 2f 30 3d c0 58 40 3d
       -0.050314464 -0.06279802 0.043013666 0.04695964
0002a0 3b bc bc bd 6d 89 1a bd 97 94 91 bd 48 08 73 bd
       -0.092155896 -0.037728716 -0.071084194 -0.05933407
0002b0 5a 40 e8 bc 9d b6 8d 3d 4a b2 83 3c d7 d4 80 3d
       -0.028350998 0.06919596 0.016076226 0.06290596
0002c0 8c ec 0b 3d b5 f6 c4 3c 52 3a cd 3d 13 9b 46 3d
       0.034161136 0.02404342 0.10020889 0.048487734
0002d0 48 cd 0b bd ee d6 56 3d 2f 85 04 bd e2 7e 16 bd
       -0.03413132 0.052451067 -0.032353576 -0.0367421
0002e0 d4 40 91 3d 9f 71 45 bd 03 1a ce bc 91 4b 82 bd
       0.07092443 -0.04820406 -0.025158888 -0.063620694
0002f0 37 80 9a bd 7c 84 8d 3d 72 ff ae 3c 3c b0 90 bd
       -0.07543986 0.06910035 0.02136204 -0.07064864
000300 41 7b 92 bd 9e 83 11 bd c8 52 b4 bb 37 bf 41 3d
       -0.07152415 -0.03552591 -0.0055030324 0.047301497
000310 3f 21 61 3c a3 7a 25 3d 7f a1 29 3d d4 07 bc bd
       0.013740837 0.04040016 0.04141378 -0.091811806
000320 77 9b 88 3c 88 6e 67 bd 67 e2 52 bd 91 c7 2c 3d
       0.016675694 -0.056501895 -0.051485445 0.04218251
000330 9d 19 eb bc 51 f3 88 3d 4c fb a9 bd 46 92 af bc
       -0.028698737 0.06687034 -0.08299884 -0.021432053
000340 78 7a e7 b9 6a 80 e3 3c 71 7d 97 bd 4f ed f4 bd
       -0.00044151 0.027771194 -0.07396973 -0.119593255
000350 de 27 ad bd 9d 68 69 3d f8 7b 59 3d a8 3a 85 bd
       -0.0845487 0.056984533 0.05309674 -0.065053284
000360 64 be c1 bd 1d 08 f3 3b 9c 03 b1 3d 17 8c b1 bc
       -0.09460142 0.0074167387 0.086432666 -0.021673245
000370 fd d0 bd bc 04 e1 03 bd a6 90 8a 3d 5a 00 72 bd
       -0.023170942 -0.032197013 0.06765871 -0.059082367
000380 13 d4 e5 3c d8 dd aa 3c 30 fc ba bb 31 c9 26 bd
       0.028055226 0.020857736 -0.0057063326 -0.040719215
000390 79 5a 0a 3d 63 3d d2 bc f8 7d e7 bc da b9 4b bd
       0.033777688 -0.025664037 -0.028258309 -0.04973779
0003a0 dd 55 b1 3d b0 15 3d 3d 00 9f 8f bd 99 68 77 bd
       0.08658955 0.04616326 -0.07012749 -0.060402486
0003b0 ad 7a a7 bd 34 77 e6 bc 24 61 8f 3d d4 61 b6 bc
       -0.081776954 -0.028133012 0.0700095 -0.022263445
0003c0 de d7 df 3d aa b8 a6 bd 56 73 46 3c 22 92 03 bd
       0.10929845 -0.081406906 0.012112459 -0.032121785
0003d0 a7 f4 7a 3d b2 9a 9f bd b9 04 e2 bb 0d 15 15 3d
       0.061268475 -0.07793178 -0.0068975356 0.03639703
0003e0 14 d0 52 bd 74 d3 dd bc b8 93 99 bc 1a a7 70 3b
       -0.05146797 -0.027078368 -0.018747196 0.0036720694
0003f0 86 52 f1 3b ef 20 4a 3c 1e 1a c3 3c fb 51 d5 bc
       0.007364574 0.012336954 0.023816165 -0.026040068

net.0.bias f4 [128]
000000 2b 82 70 bc 3e 3e 6b 3d ff e5 c7 bc 9b 03 5a bc
       -0.014679472 0.057432406 -0.024401663 -0.013306524
000010 62 86 91 3d a9 ce 59 bd 20 ae 05 bd 39 8b 7e bc
       0.071057096 -0.053175602 -0.03263676 -0.015536123
000020 fc dc 91 bd c0 55 9e bd 1c 52 f6 bc b2 b9 62 bd
       -0.071222275 -0.07731199 -0.03006845 -0.055352874
000030 b4 93 de 3c 8b 39 91 3c 5c 14 12 bc 53 75 1a 3d
       0.02717004 0.017727634 -0.008915987 0.037709545
000040 ea 98 18 3d e8 68 a2 bd 04 dc 8f 3d dd fe 36 3b
       0.037255205 -0.079301655 0.070243865 0.0027922906
000050 b6 eb 89 bd 36 44 06 3d 33 14 4f bd 69 87 64 3d
       -0.067344114 0.032779895 -0.050556373 0.0557932
000060 67 a5 b1 3c d5 a6 06 bd 5b 99 4e 3d f8 58 b2 3d
       0.021685315 -0.032873947 0.05043922 0.08708376
000070 7a 4a 90 bd 4c e7 9b 3d 75 42 7f bd 81 cb 97 bd
       -0.07045455 0.07612476 -0.062319238 -0.07411862
000080 d3 98 06 bd 0c a5 ad 3d 7a c7 ad 3d 88 8c 3d 3d
       -0.03286059 0.08478746 0.08485313 0.0462766
000090 97 b9 e1 3c 58 7a 01 3d b8 14 1c 3d 99 5f 2f bc
       0.027554316 0.031610817 0.038105696 -0.010703945
0000a0 23 c7 10 3d 39 ba db 3d 29 c9 c1 bc 7c 58 8c 3d
       0.03534616 0.107288785 -0.023655491 0.068528146
0000b0 dd 75 83 bd d3 f4 60 bd 63 3b da bc 9b 6a 46 bd
       -0.06418965 -0.054920983 -0.026639646 -0.04844151
0000c0 74 16 8e bd 95 ac 7d bc 2e 62 86 bd d4 d9 7d bd
       -0.06937876 -0.015483041 -0.06561695 -0.061975315
0000d0 a0 23 e4 bb 2a 61 68 bd 3f 2e 17 bd b5 f4 9e 3d
       -0.0069622546 -0.056733288 -0.036909338 0.07761518
0000e0 d6 73 8c 3b 6b b0 ff 3c fc 5e c5 bc 23 75 f5 3c
       0.0042862697 0.031212052 -0.024093144 0.029963082
0000f0 56 02 c2 bd a9 b9 af 3d e1 5f 6b bd b0 5c b6 3d
       -0.09473102 0.08580334 -0.057464484 0.089043975
000100 d3 f1 9e 3d e6 07 4d bd df 98 0d bc ca ab a9 bd
       0.07760968 -0.05005636 -0.008642404 -0.08284719
000110 89 d4 52 3d 43 39 b2 bb 71 05 41 3c 87 66 ea 3b
       0.05147222 -0.005438955 0.0117810825 0.0071533355
000120 df 6a 53 3c 3f 0b bf bc f5 91 54 bd 76 2a 7a bd
       0.012903898 -0.023320792 -0.051897008 -0.06107565
000130 52 9c 8b 3d 9e d6 c9 3c 63 7e 9b 3c 0c 48 55 b9
       0.06816925 0.02463847 0.018981164 -0.00020340102
000140 04 fa 83 3b 95 82 ac 3d b0 1b da bd e0 ed a0 bd
       0.004027607 0.08423344 -0.10649812 -0.07857871
000150 68 f7 91 bd 94 be 91 3c d1 ce 8c 3b a1 f9 40 bd
       -0.07127267 0.01779107 0.0042971154 -0.047113065
000160 1a 1b 16 bd 0b 50 05 3d cd 15 39 3d d0 cd 85 3d
       -0.03664694 0.032547038 0.045186806 0.06533396
000170 0f 8d 6f 3d 18 04 a7 3d 17 f3 e5 3c fc 49 a7 3c
       0.058484133 0.08155078 0.028070016 0.02042102
000180 f3 70 0b bd 5d 9e 8f bc 76 95 84 bd ee f3 fc 3c
       -0.034043264 -0.017531568 -0.0647382 0.030878033
000190 5e 40 c6 bc 9e 65 b7 bd ec 92 c1 3d 46 6d 44 bd
       -0.024200615 -0.08954929 0.09451851 -0.047955774
0001a0 fd 76 d3 ba 4a 5c 37 3d b2 44 a3 3d 9b 34 fe bb
       -0.0016133484 0.044765748 0.07972087 -0.007757736
0001b0 68 af 46 bc fb e2 e7 bc 64 f3 c6 bc a6 1b 86 3d
       -0.012126781 -0.028306475 -0.02428598 0.06548242
0001c0 67 a8 0e bd 54 45 46 bd 64 31 f8 3c 78 19 75 3d
       -0.03482857 -0.04840596 0.030296989 0.059838742
0001d0 7c fd f0 3c 50 75 84 bd a7 78 c1 3d 7a 37 89 bb
       0.029417746 -0.06467688 0.09446841 -0.0041875215
0001e0 c6 40 d1 3d 5b 15 79 3d bb c9 eb bc 0e 65 49 bd
       0.10217433 0.06081138 -0.028782716 -0.04916864
0001f0 a0 73 70 bd 25 0a 1c 3d 51 6a 77 3d 58 4a 71 3d
       -0.05870402 0.038095612 0.060404126 0.05890879

net.2.weight f4 [64, 128]
000000 83 ca aa bc e8 ea 85 3c a2 26 06 bd 7d 5e 36 3d
       -0.020848518 0.016347364 -0.032751687 0.044523705
000010 de 09 8a 3d 27 bb f2 3c 84 71 9a bc ca 6e ba bd
       0.06740163 0.029630257 -0.018852957 -0.091031626
000020 eb 8e 13 bd 93 11 16 bd 91 e8 7e bd 04 ee 53 3c
       -0.03602497 -0.036637854 -0.06223351 0.012935165
000030 89 5e 95 bd 87 c4 6d 3c 0d 1e d5 bc 61 02 e3 bc
       -0.07293422 0.014512188 -0.026015306 -0.027711095
000040 fc cf 9f 3d c4 b0 f2 3c df b2 28 3d 0c 3b 2f bd
       0.07803342 0.029625304 0.04118621 -0.04278092
000050 82 06 4b bc d2 6c ad bd 67 b3 8d 3d fe db 3c bc
       -0.012391688 -0.084680215 0.06918984 -0.01152706
000060 4d bb bc bd 8d be 00 bd 8b 8a 3a bd 9f 2f aa bc
       -0.09215412 -0.031431723 -0.04554228 -0.02077466
000070 ef a8 38 bd 62 57 ae 3d 31 bc 57 bd ad fb c5 bc
       -0.045082983 0.08512761 -0.052669708 -0.02416786
000080 fa 6d fc bd 6d 03 80 3c 0c b0 0e 3c 3a 51 a7 3d
       -0.12325664 0.015626634 0.008708965 0.081697896
000090 ce 5f 65 3d cd 53 9c 3d bc 2f 04 bd c7 ee 99 3c
       0.05599957 0.07633171 -0.032272086 0.018790616
0000a0 50 17 e0 3c 20 06 95 3d 42 27 43 3d b4 86 ef 3c
       0.027354866 0.07276559 0.04764486 0.029239036
0000b0 79 cf 1c 3d e1 51 64 bd 79 34 9a 3d b8 32 0a 3d
       0.0382838 -0.05574215 0.075295396 0.033739775
0000c0 43 4e 9a 3c df 2b 0a bd 63 23 a6 bd 36 e0 b5 bd
       0.018836146 -0.033733245 -0.08112218 -0.088806555
0000d0 8b 95 a7 3d 0a fa 16 bd 35 35 2e 3b d9 53 01 bd
       0.0818282 -0.03685955 0.0026582007 -0.031574104
0000e0 18 50 c2 3b 18 b6 68 3d aa 57 18 bd c2 72 e4 3d
       0.005929958 0.056814283 -0.037192978 0.11154701
0000f0 20 81 0a 3d 67 56 1d 3d 1a f8 0a 3c a0 e8 7b bd
       0.03381455 0.038412478 0.008482004 -0.061501145
000100 e3 5e 81 3d 93 67 a0 bd da e7 0f 3b 69 5b dd bd
       0.06316926 -0.07832255 0.0021958263 -0.10808451
000110 e9 90 c1 3c ff f3 2b bd e9 d1 b6 3b 33 1b 10 3d
       0.023628669 -0.04198074 0.0055792225 0.03518219
000120 ed ee e6 bb 5a f7 33 bd c5 eb a8 bd a5 6d 9b 3d
       -0.007047525 -0.043937065 -0.082480945 0.075892724
000130 1f ac f0 3b 34 86 39 3c 9c d7 e9 3b 86 e5 8c 3d
       0.007344737 0.0113235 0.0071362983 0.068797156
000140 a9 e4 c5 bc 56 71 81 3d d4 f2 06 bd 3b 44 0f 3e
       -0.024156885 0.06320445 -0.032946423 0.13990872
000150 04 af 93 bd b6 5d ad bc f3 b1 24 bd ca 77 57 3d
       -0.07211116 -0.021162849 -0.040208768 0.052604474
000160 3c dc 40 3d 42 64 8b bc b3 cc 8d 3d f2 ce 23 bc
       0.047085032 -0.01701558 0.06923809 -0.00999807
000170 e2 7e 9e 3b b1 37 9f 3d 92 20 17 ba 5b f5 03 3d
       0.004836903 0.07774294 -0.0005765046 0.03221641
000180 d6 f7 ae bd a4 22 c9 bd 5e 09 bd 3d 31 1a 2c bd
       -0.08543365 -0.0982106 0.09230302 -0.042017166
000190 d4 ff 5c 3d a0 e3 2a 3c 18 6d 42 bd 95 c3 bb bb
       0.053954914 0.010430247 -0.04746732 -0.0057301023
0001a0 7d 16 cf bc 6f 85 87 3c 1f 5b 6c 3d e1 54 2f bd
       -0.025279278 0.016543118 0.057704087 -0.042805556
0001b0 7e 9c 80 bd 55 d6 60 bc d7 5b d8 bc ba 0c bd bd
       -0.062798485 -0.013722976 -0.02641098 -0.09230943
0001c0 ad f7 f1 3d 0f b8 fa 3d 9c a5 4c 3d 02 ec bf 3d
       0.118148185 0.12242138 0.049962625 0.09371187
0001d0 00 31 2e 3d e2 87 03 3d 43 55 40 bd 9b 0a 49 bd
       0.0425272 0.03211201 -0.046956312 -0.04908238
0001e0 13 3e 59 3d f7 af 55 bc 9b bf a0 3d 66 23 17 3c
       0.053037714 -0.013042442 0.07849046 0.009224748
0001f0 79 2c a9 bc a7 37 26 bd b5 e1 7e bd 12 6c 0f 3d
       -0.020651089 -0.040580418 -0.06222697 0.035015173
000200 61 94 bc 3d 76 2e 44 3d e5 90 f9 bc 00 b0 88 3d
       0.092079885 0.04789587 -0.030464599 0.06674194
000210 cf 73 a9 bd 19 72 aa 3d 89 ed 15 3c 67 42 05 3c
       -0.08274042 0.08322544 0.009150871 0.008133507
000220 ac 04 b8 3d d6 ea bb bd 3c 1a ae bd 39 72 be bc
       0.08985266 -0.09175651 -0.085010976 -0.023247825
000230 fa 59 62 3c aa 87 f9 3d 35 ed 8a bc ef 45 72 3d
       0.013815397 0.12184079 -0.016958812 0.059148725
000240 b9 85 aa 3d cb b2 5b bd 78 b9 3a bb 39 5d 8b bc
       0.08326287 -0.053637307 -0.0028491896 -0.017012225
000250 e1 ac d2 3d 37 c0 5a 3d 9b a2 ab bd 0d d6 07 bd
       0.1028688 0.053405967 -0.08380624 -0.03316312
000260 c8 34 c4 bd dc 00 d1 3c 3b ef aa 3d 9d 91 83 bc
       -0.0958038 0.025513105 0.08346411 -0.016060645
000270 20 bf b6 3c 3c 2f ac 3c 94 94 76 3d a8 4d 6d bd
       0.022307932 0.021018617 0.06020029 -0.057935387
000280 00 63 7e bb c2 90 c1 bc 04 81 d4 bd db f1 b1 bd
       -0.0038816333 -0.023628596 -0.1037617 -0.086887084
000290 b7 73 06 3d fa af 36 bd fe da 00 3d 6d 7a c2 bc
       0.032825198 -0.044601418 0.031458847 -0.023740018
0002a0 31 0c 8c bd 40 8f de 3b 7f a8 8f bd 2b d4 82 3d
       -0.06838263 0.006791979 -0.0701456 0.06388124
0002b0 30 1f b3 bd f9 a5 81 bd e0 5f 76 bd 06 0e a7 bd
       -0.08746183 -0.06330485 -0.060150027 -0.08156972
0002c0 69 4a a9 bc 58 c8 f5 bb c1 af c9 3d 88 eb 02 be
       -0.020665364 -0.0075006895 0.098479755 -0.1278516
0002d0 7a c5 9f 3d 91 b5 0e bd af 14 c1 bc 0e fa 9e bd
       0.078013375 -0.034841124 -0.023569433 -0.07762538
0002e0 46 a2 ef 3d ae 33 cd bd 99 8a 99 bc 4a f6 6f bd
       0.11700873 -0.10019623 -0.018742846 -0.05858449
0002f0 42 5f 08 3d b0 5a da bc bb d8 88 bc b9 56 86 bd
       0.03329397 -0.026654571 -0.016704908 -0.0655951
000300 1c 5b d7 3d c9 bc 8d 3d 74 5a b2 3a ef 07 6c bd
       0.105154246 0.069207735 0.0013607279 -0.057624754
000310 f8 ba bb 3b 7e c0 55 3d 2e 06 be 3d c6 66 ab 3d
       0.0057290755 0.052185528 0.092785224 0.08369212
000320 11 c2 1e bd 52 7e de bb ba 66 87 bc aa 14 03 be
       -0.038759295 -0.006789961 -0.016528476 -0.12800851
000330 71 05 52 bd 77 98 3e 3d ca cb 64 ba d8 6a 39 3d
       -0.05127472 0.04653212 -0.00087278767 0.04526791
000340 93 2d 96 bd ad 26 96 3d 93 b4 29 3d 04 8a f0 3a
       -0.07332911 0.073315956 0.041431975 0.0018351679
000350 e5 6e ef bd 8a 19 0c bb a0 e7 c6 bd 83 9f 5e 3d
       -0.11691073 -0.0021377527 -0.09712148 0.05435134
000360 eb 2b 58 bd d7 49 20 bc be 8f f8 bc e2 b4 d2 3c
       -0.05277626 -0.00978323 -0.03034198 0.025721017
000370 db 5b db 3d 0c 98 6c 3d 72 ee 07 bd c5 d9 90 3d
       0.107108794 0.05776219 -0.033186384 0.07072786
000380 7e 10 12 bd 8b 46 17 3d fe cf f3 3c 9c a4 34 3c
       -0.03566026 0.03693251 0.029762264 0.011025574
000390 f1 ca d2 bc 8a 3a 86 3d 3a e8 ab bd 4d 10 c2 bd
       -0.025731536 0.06554134 -0.08393903 -0.094757654
0003a0 8b 6a 08 bd 88 cf bc bd d0 03 d2 3c 32 63 0a 3c
       -0.033304732 -0.09219271 0.025636584 0.008446502
0003b0 10 77 6e bd b3 6b 4b 3d ec 8d 36 3d aa c7 7b 3d
       -0.058219016 0.049663257 0.04456894 0.06146971
0003c0 0b ca 5f 3d 97 5a 8d 3c 1c 29 85 3d 5e 1d 30 bd
       0.054636043 0.01725511 0.065019816 -0.042996757
0003d0 66 86 86 3d a3 d4 7e bd 88 1d 40 bb 4c 64 9f bc
       0.06568603 -0.062214505 -0.0029314477 -0.019457005
0003e0 ba 88 19 3d 89 02 de bc 5e f0 30 bc 0c 44 a6 bc
       0.03748391 -0.027100818 -0.0107994955 -0.02029612
0003f0 40 86 3a 37 4a 73 7f bd 07 7c d0 bc 41 7b 8e bd
       1.1117721e-05 -0.062365808 -0.025449766 -0.069571026

net.2.bias f4 [64]
000000 f5 c0 ee 3b 3c da 03 3d 8b 27 9b 3b eb d8 1c 3d
       0.007286186 0.032190546 0.0047349385 0.038292807
000010 55 66 6e 3d 29 bf 0e 3d 1f 26 b1 3d 70 d4 47 bc
       0.05820306 0.034850273 0.08649849 -0.012196645
000020 44 22 92 bd 30 45 a8 3c 1c 64 87 3d 47 b3 a3 3d
       -0.07135442 0.020540804 0.06610891 0.07993179
000030 9c ac b6 bc d2 60 88 bd f1 7c f5 bc 75 8d 1b 3d
       -0.022299103 -0.06659092 -0.029966803 0.0379767
000040 8a 55 8b bd 2c 41 9c bd 57 da 72 3d e1 01 92 bd
       -0.06803425 -0.07629618 0.059290256 -0.071292646
000050 35 6e a7 3d 9d 97 b1 3d c3 8c fb bc 71 37 70 3d
       0.08175317 0.08671496 -0.030706769 0.058646623
000060 1e 92 28 bb a3 65 21 bd 5d cc c0 3d f0 19 87 bc
       -0.0025721858 -0.03940357 0.09413979 -0.01649186
000070 2f 9a 0f 3d 22 98 d2 3c 97 66 23 bd 20 f0 9d bd
       0.03505915 0.025707308 -0.03989276 -0.07711816
000080 bd 6a a9 bd 69 ea 6a 3d 1c 4f ba bc 4c 01 21 3d
       -0.08272312 0.057352457 -0.0227428 0.039307877
000090 98 78 9d 3d bb 20 d2 3c 26 49 20 bd 63 0d b0 3b
       0.07689017 0.025650373 -0.03913226 0.0053726896
0000a0 8c 6c d1 bd 32 96 57 bd 6c 62 98 bb ef f6 3a 3d
       -0.10225782 -0.05263347 -0.0046504047 0.04564565
0000b0 d5 ea 7a 3c e1 47 38 bc a9 6a 89 3d b2 d6 d4 bd
       0.015314777 -0.011247606 0.06709797 -0.103925124
0000c0 e7 d7 03 bd a0 8c 2a 3d 25 b8 60 bd e4 0e 8d 3d
       -0.032188322 0.041638017 -0.054863114 0.06887606
0000d0 fd 78 1f bd ab 66 11 bb 70 b2 f2 3b be a0 5c bd
       -0.038933743 -0.002218644 0.0074065253 -0.053864233
0000e0 ed 7b 8b bd 10 99 9d bb 44 61 8b 3a 16 0a b8 bd
       -0.06810746 -0.0048095062 0.0010633846 -0.08986299
0000f0 e5 dc 20 bd b5 e4 a8 3d f8 5b 05 bd 45 ec 38 3c
       -0.03927316 0.082467474 -0.03255841 0.0112868

net.4.weight f4 [2, 64]
000000 ad 89 fe 3d 96 fe 0c be bc 3b ee 3d 68 d2 b7 bd
       0.12428603 -0.13768992 0.11632487 -0.08975679
000010 01 a0 d6 3d 03 07 14 3d 41 b1 b3 3d 20 97 e2 bd
       0.10479737 0.0361395 0.08774043 -0.11063981
000020 48 69 15 be ff 10 08 bd ea 92 87 3d 28 3d 09 be
       -0.14590943 -0.033219334 0.066198185 -0.13402236
000030 fb a8 3c 3e 0b 55 36 bd 49 15 22 bd b2 26 95 3d
       0.18423836 -0.044514697 -0.03957108 0.07282771
000040 96 9b 95 bd 80 5d ee 3d 72 ee fe 3d b6 c9 1d be
       -0.07305066 0.116389275 0.124478236 -0.15408978
000050 8b f7 c9 bd fc af c6 3d 69 4d 59 bd c5 c7 e7 3c
       -0.09861668 0.09701535 -0.05305234 0.0282935
000060 7c b5 91 bd 10 ac 41 bd 9a a9 7f bd 24 d4 b4 bd
       -0.071146935 -0.047283232 -0.062417604 -0.08829525
000070 fa 35 b1 bd 53 3c 75 3d 6b 51 29 be ee 63 6a bb
       -0.08652873 0.059871983 -0.16534965 -0.003576513
000080 1d c5 c0 bd fb 1e ee 3b b7 9e 16 be 78 a2 50 3d
       -0.094125964 0.0072668768 -0.14708982 0.050936192
000090 38 b9 08 be 0a 8b 3e bd 64 27 1e be 16 67 db 3d
       -0.13351905 -0.046519317 -0.15444714 0.107130215
0000a0 76 69 c5 bd de cd 14 be d3 8c 00 3e 13 77 70 bd
       -0.09639256 -0.14531657 0.1255372 -0.058707308
0000b0 85 ec 23 3e 42 2e 00 be a6 43 0e 3d a6 73 96 bb
       0.16008194 -0.12517646 0.034732483 -0.004591423
0000c0 0b 5d a4 3d e4 73 d2 3b 9f e6 63 bd db 10 a0 3d
       0.08025559 0.0064225066 -0.05563986 0.07815715
0000d0 54 9e 99 bd f2 c4 e9 3d 2a fa f7 b9 7f e9 73 bd
       -0.07500902 0.114145175 -0.00047297898 -0.05954885
0000e0 aa 13 8e 3d 2b 25 ac 3d 39 59 dd 3c f9 80 b6 3d
       0.06937344 0.08405527 0.027020084 0.08911318
0000f0 5a be 15 3e 24 74 8b 3d 52 ed 2b be 5c 95 e7 3d
       0.14623395 0.068092614 -0.1678975 0.11307785
000100 8a bf e1 bd 15 99 b9 3d 80 dc ab 3c 22 79 bc bd
       -0.11022861 0.09062401 0.020979166 -0.09202792
000110 0a 08 a8 3d 0f 8e b3 3c 03 5d 49 3d e0 13 16 be
       0.08204658 0.021918325 0.04916097 -0.14656019
000120 dd c4 d7 bd 0f 8b b4 bd 81 3c 70 bd 85 28 17 be
       -0.105355956 -0.08815586 -0.05865145 -0.1476155
000130 78 ac fe 3d 5d 0c 88 bd e6 8d 99 3d e0 ff e5 3d
       0.124352396 -0.06642983 0.07497768 0.11230445
000140 d7 4e d8 3c 26 89 b8 bd 75 e5 64 bd 3c 0f a2 3d
       0.026404781 -0.09010534 -0.05588289 0.07913062
000150 0f 69 9b bd f8 fb b1 3b fb d9 27 3e 29 a1 d3 3d
       -0.07588398 0.0054316483 0.16391747 0.10333473
000160 bb 51 f5 bc c1 73 97 3d 25 c6 d3 bd 9c a5 c5 3d
       -0.029946199 0.07395125 -0.103405274 0.09650728
000170 ba ea a5 3d f8 09 13 be df 36 ee 3d 38 70 78 3d
       0.08101411 -0.14359272 0.116315596 0.060653895
000180 16 19 ce 3c d9 07 66 3c bd 9e 58 bd fd 19 d2 bc
       0.025158446 0.014039957 -0.05288576 -0.025647158
000190 30 4a 85 3d 30 d8 55 bd 11 d6 62 be 22 fc b7 3a
       0.06508291 -0.052208126 -0.22151972 0.0014036933
0001a0 bd 3b cc 3c 21 42 12 3e e8 a5 10 be 67 85 e6 3d
       0.02493083 0.14283039 -0.14125788 0.11255913
0001b0 8c 81 3e bb dc e1 98 bd cd 8e f6 3d 85 13 1c bc
       -0.0029068915 -0.07464954 0.12038956 -0.009526138
0001c0 14 bf f5 3c d4 e1 d2 bd ca 2d e8 bd 1d 8b 52 3c
       0.02999834 -0.102969795 -0.113368586 0.01285055
0001d0 31 ea 24 bd bb b3 11 3e f3 63 9a bd 4a a4 ea bd
       -0.040262405 0.14228718 -0.07538595 -0.11457117
0001e0 5c aa 75 bd ab 06 5a bd f7 f0 02 3e 81 0c 1f bc
       -0.05997692 -0.053229015 0.12787233 -0.009707571
0001f0 b0 a5 00 be fc 13 e9 bd 2c 00 92 3b 0d 67 37 bd
       -0.12563205 -0.11380765 0.004455587 -0.04477601

net.4.bias f4 [2]
000000 b1 8a c6 3b 51 5b b6 3d
       0.006059014 0.08904136

X_mean f4 [128]
000000 dc c5 35 c3 d0 ff e9 42 c5 b9 da bf f5 d3 d0 41
       -181.77289 116.99963 -1.7087942 26.103495
000010 9f 4a 9b 40 8c 5c d1 40 49 b7 51 bf b0 16 49 40
       4.852859 6.542547 -0.81920296 3.1420097
000020 8a 64 6c c0 50 97 af 3f 51 e0 67 c0 26 98 48 3e
       -3.6936364 1.3718052 -3.6230662 0.1958929
000030 d1 c1 74 c0 66 ea 64 bf 15 0f 84 c0 13 c5 c9 be
       -3.8243296 -0.89420164 -4.126841 -0.39408168
000040 66 7e 7c c0 1d 0b 2d bf a4 d3 5e c0 ca 60 77 bf
       -3.9452147 -0.6759508 -3.4816675 -0.96632063
000050 bb 3d 7a 42 32 af e6 41 15 bc a6 41 af 61 66 41
       62.560284 28.835545 20.841837 14.398849
000060 9a b9 41 41 db fb 28 41 80 72 1a 41 26 3a 0f 41
       12.107813 10.561488 9.652954 8.951696
000070 da 24 0c 41 75 e4 07 41 7b ed 04 41 62 68 01 41
       8.758997 8.493276 8.307979 8.087984
000080 15 7d fd 40 e8 07 f6 40 8f 9c f2 40 f5 b0 ee 40
       7.921519 7.688465 7.581611 7.459101
000090 42 e4 ed 40 d9 30 ee 40 a9 f4 f4 40 63 81 fb 40
       7.4341135 7.443463 7.6548657 7.8595443
0000a0 25 6d e8 c3 27 d6 2a 40 c8 e1 80 c2 47 2e ad c1
       -464.8527 2.6693208 -64.44098 -21.647596
0000b0 5a 4e 0f c2 13 f8 ea c1 53 c0 03 c2 fe 91 d8 c1
       -35.826515 -29.37113 -32.937817 -27.071285
0000c0 b8 5d 05 c2 44 b3 d5 c1 11 af fb c1 34 d1 d6 c1
       -33.341522 -26.712532 -31.460482 -26.85215
0000d0 f1 fa ef c1 f5 d9 d2 c1 4a 52 e8 c1 77 f5 c5 c1
       -29.99753 -26.356424 -29.04018 -24.744856
0000e0 f2 da e0 c1 b4 c7 c6 c1 73 d1 e3 c1 8b f8 d6 c1
       -28.106907 -24.847511 -28.47727 -26.871359
0000f0 8e 2b 0f c2 8f 75 40 43 50 6c 81 42 d4 fb 8e 42
       -35.792534 192.45921 64.71155 71.49185
000100 e5 ba 29 42 41 70 1f 42 e0 d7 f5 41 7b 41 02 42
       42.432514 39.859623 30.730408 32.563946
000110 b2 89 c9 41 1a 62 f2 41 01 fa c3 41 ed 27 de 41
       25.192234 30.297901 24.497072 27.769495
000120 3f 14 ba 41 eb 16 ce 41 c2 9e b4 41 18 9d cf 41
       23.259886 25.76119 22.577518 25.951706
000130 cb 83 b4 41 17 b0 ce 41 a7 d8 bf 41 eb 84 d8 41
       22.564352 25.835981 23.980787 27.064901
000140 7a 97 75 3e 0b c8 5f 3e d6 06 88 3e 75 d7 5b 3e
       0.23983565 0.21853654 0.26567715 0.21468909
000150 a8 1c 86 3e 27 b2 66 3e 30 94 6a 3e 6b 78 8a 3e
       0.26193738 0.22528897 0.22908092 0.27044997
000160 5f f9 65 3e 15 f7 87 3e 3f 44 55 3e 24 57 68 3e
       0.22458409 0.26555696 0.20826815 0.22689492
000170 45 56 f4 3d 49 dc ce 3d cb 32 fb 3d 2e 3f d0 3d
       0.11930517 0.1010061 0.12265547 0.101683006
000180 e4 fd f2 3d 65 ec e0 3d df 3a d4 3d a4 c9 f8 3d
       0.11864832 0.10982589 0.10362791 0.12147835
000190 dd 18 ce 3d 85 43 01 3e 3b 6a d7 3d 43 f4 e9 3d
       0.10063336 0.12623413 0.10518309 0.11423542
0001a0 4a 7e 0b 3d 14 0d 1b 3d 53 f6 32 3d d2 6e 0f 3d
       0.034055986 0.03785427 0.043691944 0.035017796
0001b0 b2 c0 3c 3d fb 90 0d 3d 1d 98 22 3d 1f 09 3c 3d
       0.046082206 0.034562092 0.039695848 0.045907136
0001c0 50 fe 1a 3d b4 49 26 3d 9b 17 e1 3c 9e e0 ee 3c
       0.037840188 0.040597633 0.027477076 0.02915984
0001d0 1c 85 10 3f 35 58 02 3f 68 89 17 3f 2a 16 01 3f
       0.5645311 0.50915843 0.5919404 0.50424445
0001e0 0f b0 14 3f 98 ea 09 3f 2d 01 06 3f 6c 1a 18 3f
       0.58081144 0.53873587 0.52345544 0.59415317
0001f0 8c e6 01 3f 49 85 18 3f 6c 39 01 3f 16 8b 0b 3f
       0.5074241 0.59578377 0.50478244 0.54509103

X_std f4 [128]
000000 84 f2 b4 42 bc 61 14 42 70 26 d4 41 7b 65 7e 41
       90.47366 37.095444 26.518768 15.8997755
000010 dd b6 2e 41 9d 90 3f 41 88 5d fe 40 56 91 02 41
       10.919644 11.972806 7.9489174 8.160482
000020 31 6e fa 40 a2 3d e1 40 03 05 ba 40 58 35 d4 40
       7.825951 7.0387735 5.813112 6.6315117
000030 9c 5d a7 40 9b 9c a5 40 ab be 98 40 4d 2f 99 40
       5.230177 5.175367 4.773275 4.787024
000040 5f 63 8e 40 33 0d 91 40 42 78 82 40 57 95 8b 40
       4.4496303 4.532861 4.07718 4.36198
000050 71 40 cc 41 5a 9f 24 41 57 24 e9 40 1d 99 90 40
       25.531466 10.288904 7.285686 4.5186906
000060 bc c4 6e 40 35 02 54 40 38 61 29 40 96 e0 1c 40
       3.7307577 3.3126347 2.6465588 2.4512076
000070 21 3c 15 40 f3 b7 0e 40 26 a6 0b 40 fa 88 0b 40
       2.331795 2.2299774 2.182016 2.1802354
000080 43 71 0a 40 19 34 01 40 a2 f2 fe 3f 78 ba f7 3f
       2.163163 2.0188048 1.9917796 1.9353781
000090 4a 18 fd 3f 24 4b 01 40 8e f5 0a 40 a8 20 1a 40
       1.9773037 2.0202112 2.1712375 2.4082432
0000a0 91 b1 f0 42 2e 9b 1a 42 f3 bd e4 41 9a dd aa 41
       120.34681 38.651543 28.592749 21.358204
0000b0 19 e4 82 41 1c d6 86 41 db be 3e 41 21 10 3f 41
       16.361376 16.854546 11.921596 11.941438
0000c0 7c 95 41 41 4f 02 2a 41 dc 85 1f 41 9b 19 25 41
       12.098995 10.625564 9.9701805 10.318751
0000d0 54 aa 0c 41 ac b8 09 41 e9 91 fe 40 3e 31 00 41
       8.791584 8.607586 7.9553113 8.012022
0000e0 af 23 ec 40 35 83 ef 40 e8 2e ff 40 8b c5 0d 41
       7.379356 7.4847665 7.974476 8.860728
0000f0 9e 72 91 42 f4 57 0f 42 60 38 00 42 26 99 a8 41
       72.72386 35.83589 32.055054 21.07478
000100 a9 07 81 41 2f 6e 63 41 1d de 4a 41 64 d4 35 41
       16.12874 14.2144 12.679227 11.364353
000110 ca 13 2a 41 04 d6 2e 41 74 33 20 41 af eb 21 41
       10.629831 10.92725 10.012562 10.12004
000120 1a ba 1c 41 0d 45 14 41 0a 6d 19 41 3c 3f 17 41
       9.795435 9.266858 9.589121 9.452938
000130 33 7a 22 41 f8 32 17 41 29 8f 17 41 af a5 1f 41
       10.154834 9.449944 9.472451 9.97795
000140 9a f8 e1 3d 36 61 d2 3d ad d5 df 3d 7e 59 d3 3d
       0.11033745 0.10272448 0.10929427 0.10319804
000150 19 97 e4 3d 95 59 c7 3d 5a 4e c6 3d b0 2e db 3d
       0.11161632 0.09733883 0.09682913 0.10702264
000160 b9 3a cf 3d 66 9b e0 3d 3b d2 cf 3d 49 48 d1 3d
       0.10118622 0.1096714 0.1014752 0.102188654
000170 6c 62 72 3d 94 27 46 3d fb af 6a 3d e1 d6 56 3d
       0.059175894 0.04837759 0.057296734 0.05245102
000180 4f 81 62 3d e8 f0 5e 3d 57 dd 49 3d fa 02 64 3d
       0.0552991 0.054428965 0.04928335 0.0556669
000190 df e9 44 3d a7 58 70 3d 83 5f 57 3d ce af 57 3d
       0.0480746 0.058678295 0.05258132 0.052657895
0001a0 46 92 81 3d d1 f7 87 3d 54 56 91 3d 87 9d 83 3d
       0.063267276 0.06639064 0.07096544 0.0642653
0001b0 7b 07 96 3d 9c d6 7d 3d f0 e2 83 3d 93 7e 91 3d
       0.073256455 0.061972246 0.06439769 0.0710422
0001c0 b6 ea 84 3d c6 3d 8c 3d fc 4b 67 3d a7 e1 66 3d
       0.0649008 0.0684772 0.05646895 0.056367543
0001d0 98 0f 3e 3e 73 63 2e 3e 5e ca 37 3e c2 28 37 3e
       0.18560636 0.17030124 0.1794829 0.17886642
0001e0 3b d3 36 3e 1b 79 30 3e 26 29 2c 3e 59 60 34 3e
       0.17854016 0.17233698 0.16812572 0.17614879
0001f0 e2 0c 2c 3e 18 b5 3a 3e 0c 38 39 3e 00 d0 33 3e
       0.1680179 0.18233144 0.18087786 0.17559814
